*** Loading the model ...Model: "functional_20"
┏━━━━━━━━━━━━━━━━━━━━━━━━━━━━━━━┳━━━━━━━━━━━━━━━━━━━━━━━━━━━┳━━━━━━━━━━━━━━━━━┳━━━━━━━━━━━━━━━━━━━━━━━━━━━━┓
┃ Layer (type)                  ┃ Output Shape              ┃         Param # ┃ Connected to               ┃
┡━━━━━━━━━━━━━━━━━━━━━━━━━━━━━━━╇━━━━━━━━━━━━━━━━━━━━━━━━━━━╇━━━━━━━━━━━━━━━━━╇━━━━━━━━━━━━━━━━━━━━━━━━━━━━┩
│ input (InputLayer)            │ (None, 6000, 3)           │               0 │ -                          │
├───────────────────────────────┼───────────────────────────┼─────────────────┼────────────────────────────┤
│ conv1d_261 (Conv1D)           │ (None, 6000, 3)           │             102 │ input[0][0]                │
├───────────────────────────────┼───────────────────────────┼─────────────────┼────────────────────────────┤
│ batch_normalization_261       │ (None, 6000, 3)           │              12 │ conv1d_261[0][0]           │
│ (BatchNormalization)          │                           │                 │                            │
├───────────────────────────────┼───────────────────────────┼─────────────────┼────────────────────────────┤
│ activation_261 (Activation)   │ (None, 6000, 3)           │               0 │ batch_normalization_261[0… │
├───────────────────────────────┼───────────────────────────┼─────────────────┼────────────────────────────┤
│ conv1d_262 (Conv1D)           │ (None, 6000, 3)           │             102 │ activation_261[0][0]       │
├───────────────────────────────┼───────────────────────────┼─────────────────┼────────────────────────────┤
│ batch_normalization_262       │ (None, 6000, 3)           │              12 │ conv1d_262[0][0]           │
│ (BatchNormalization)          │                           │                 │                            │
├───────────────────────────────┼───────────────────────────┼─────────────────┼────────────────────────────┤
│ activation_262 (Activation)   │ (None, 6000, 3)           │               0 │ batch_normalization_262[0… │
├───────────────────────────────┼───────────────────────────┼─────────────────┼────────────────────────────┤
│ add_191 (Add)                 │ (None, 6000, 3)           │               0 │ activation_262[0][0],      │
│                               │                           │                 │ input[0][0]                │
├───────────────────────────────┼───────────────────────────┼─────────────────┼────────────────────────────┤
│ conv1d_263 (Conv1D)           │ (None, 6000, 10)          │             340 │ add_191[0][0]              │
├───────────────────────────────┼───────────────────────────┼─────────────────┼────────────────────────────┤
│ batch_normalization_263       │ (None, 6000, 10)          │              40 │ conv1d_263[0][0]           │
│ (BatchNormalization)          │                           │                 │                            │
├───────────────────────────────┼───────────────────────────┼─────────────────┼────────────────────────────┤
│ activation_263 (Activation)   │ (None, 6000, 10)          │               0 │ batch_normalization_263[0… │
├───────────────────────────────┼───────────────────────────┼─────────────────┼────────────────────────────┤
│ dropout_243 (Dropout)         │ (None, 6000, 10)          │               0 │ activation_263[0][0]       │
├───────────────────────────────┼───────────────────────────┼─────────────────┼────────────────────────────┤
│ conv1d_264 (Conv1D)           │ (None, 6000, 10)          │           1,110 │ dropout_243[0][0]          │
├───────────────────────────────┼───────────────────────────┼─────────────────┼────────────────────────────┤
│ batch_normalization_264       │ (None, 6000, 10)          │              40 │ conv1d_264[0][0]           │
│ (BatchNormalization)          │                           │                 │                            │
├───────────────────────────────┼───────────────────────────┼─────────────────┼────────────────────────────┤
│ activation_264 (Activation)   │ (None, 6000, 10)          │               0 │ batch_normalization_264[0… │
├───────────────────────────────┼───────────────────────────┼─────────────────┼────────────────────────────┤
│ conv1d_265 (Conv1D)           │ (None, 6000, 10)          │           1,110 │ activation_264[0][0]       │
├───────────────────────────────┼───────────────────────────┼─────────────────┼────────────────────────────┤
│ batch_normalization_265       │ (None, 6000, 10)          │              40 │ conv1d_265[0][0]           │
│ (BatchNormalization)          │                           │                 │                            │
├───────────────────────────────┼───────────────────────────┼─────────────────┼────────────────────────────┤
│ activation_265 (Activation)   │ (None, 6000, 10)          │               0 │ batch_normalization_265[0… │
├───────────────────────────────┼───────────────────────────┼─────────────────┼────────────────────────────┤
│ add_192 (Add)                 │ (None, 6000, 10)          │               0 │ activation_265[0][0],      │
│                               │                           │                 │ dropout_243[0][0]          │
├───────────────────────────────┼───────────────────────────┼─────────────────┼────────────────────────────┤
│ conv1d_266 (Conv1D)           │ (None, 6000, 20)          │           2,220 │ add_192[0][0]              │
├───────────────────────────────┼───────────────────────────┼─────────────────┼────────────────────────────┤
│ batch_normalization_266       │ (None, 6000, 20)          │              80 │ conv1d_266[0][0]           │
│ (BatchNormalization)          │                           │                 │                            │
├───────────────────────────────┼───────────────────────────┼─────────────────┼────────────────────────────┤
│ activation_266 (Activation)   │ (None, 6000, 20)          │               0 │ batch_normalization_266[0… │
├───────────────────────────────┼───────────────────────────┼─────────────────┼────────────────────────────┤
│ dropout_244 (Dropout)         │ (None, 6000, 20)          │               0 │ activation_266[0][0]       │
├───────────────────────────────┼───────────────────────────┼─────────────────┼────────────────────────────┤
│ conv1d_267 (Conv1D)           │ (None, 6000, 20)          │           4,420 │ dropout_244[0][0]          │
├───────────────────────────────┼───────────────────────────┼─────────────────┼────────────────────────────┤
│ batch_normalization_267       │ (None, 6000, 20)          │              80 │ conv1d_267[0][0]           │
│ (BatchNormalization)          │                           │                 │                            │
├───────────────────────────────┼───────────────────────────┼─────────────────┼────────────────────────────┤
│ activation_267 (Activation)   │ (None, 6000, 20)          │               0 │ batch_normalization_267[0… │
├───────────────────────────────┼───────────────────────────┼─────────────────┼────────────────────────────┤
│ conv1d_268 (Conv1D)           │ (None, 6000, 20)          │           4,420 │ activation_267[0][0]       │
├───────────────────────────────┼───────────────────────────┼─────────────────┼────────────────────────────┤
│ batch_normalization_268       │ (None, 6000, 20)          │              80 │ conv1d_268[0][0]           │
│ (BatchNormalization)          │                           │                 │                            │
├───────────────────────────────┼───────────────────────────┼─────────────────┼────────────────────────────┤
│ activation_268 (Activation)   │ (None, 6000, 20)          │               0 │ batch_normalization_268[0… │
├───────────────────────────────┼───────────────────────────┼─────────────────┼────────────────────────────┤
│ add_193 (Add)                 │ (None, 6000, 20)          │               0 │ activation_268[0][0],      │
│                               │                           │                 │ dropout_244[0][0]          │
├───────────────────────────────┼───────────────────────────┼─────────────────┼────────────────────────────┤
│ conv1d_269 (Conv1D)           │ (None, 6000, 40)          │           8,840 │ add_193[0][0]              │
├───────────────────────────────┼───────────────────────────┼─────────────────┼────────────────────────────┤
│ batch_normalization_269       │ (None, 6000, 40)          │             160 │ conv1d_269[0][0]           │
│ (BatchNormalization)          │                           │                 │                            │
├───────────────────────────────┼───────────────────────────┼─────────────────┼────────────────────────────┤
│ activation_269 (Activation)   │ (None, 6000, 40)          │               0 │ batch_normalization_269[0… │
├───────────────────────────────┼───────────────────────────┼─────────────────┼────────────────────────────┤
│ dropout_245 (Dropout)         │ (None, 6000, 40)          │               0 │ activation_269[0][0]       │
├───────────────────────────────┼───────────────────────────┼─────────────────┼────────────────────────────┤
│ reshape_26 (Reshape)          │ (None, 6000, 1, 40)       │               0 │ dropout_245[0][0]          │
├───────────────────────────────┼───────────────────────────┼─────────────────┼────────────────────────────┤
│ patches_13 (Patches)          │ (None, None, 1600)        │               0 │ reshape_26[0][0]           │
├───────────────────────────────┼───────────────────────────┼─────────────────┼────────────────────────────┤
│ patch_encoder_13              │ (None, 150, 40)           │          70,040 │ patches_13[0][0]           │
│ (PatchEncoder)                │                           │                 │                            │
├───────────────────────────────┼───────────────────────────┼─────────────────┼────────────────────────────┤
│ conv1d_270 (Conv1D)           │ (None, 150, 40)           │          17,640 │ patch_encoder_13[0][0]     │
├───────────────────────────────┼───────────────────────────┼─────────────────┼────────────────────────────┤
│ batch_normalization_270       │ (None, 150, 40)           │             160 │ conv1d_270[0][0]           │
│ (BatchNormalization)          │                           │                 │                            │
├───────────────────────────────┼───────────────────────────┼─────────────────┼────────────────────────────┤
│ activation_270 (Activation)   │ (None, 150, 40)           │               0 │ batch_normalization_270[0… │
├───────────────────────────────┼───────────────────────────┼─────────────────┼────────────────────────────┤
│ conv1d_271 (Conv1D)           │ (None, 150, 40)           │          17,640 │ activation_270[0][0]       │
├───────────────────────────────┼───────────────────────────┼─────────────────┼────────────────────────────┤
│ batch_normalization_271       │ (None, 150, 40)           │             160 │ conv1d_271[0][0]           │
│ (BatchNormalization)          │                           │                 │                            │
├───────────────────────────────┼───────────────────────────┼─────────────────┼────────────────────────────┤
│ activation_271 (Activation)   │ (None, 150, 40)           │               0 │ batch_normalization_271[0… │
├───────────────────────────────┼───────────────────────────┼─────────────────┼────────────────────────────┤
│ add_194 (Add)                 │ (None, 150, 40)           │               0 │ activation_271[0][0],      │
│                               │                           │                 │ patch_encoder_13[0][0]     │
├───────────────────────────────┼───────────────────────────┼─────────────────┼────────────────────────────┤
│ conv1d_272 (Conv1D)           │ (None, 150, 40)           │          17,640 │ add_194[0][0]              │
├───────────────────────────────┼───────────────────────────┼─────────────────┼────────────────────────────┤
│ batch_normalization_272       │ (None, 150, 40)           │             160 │ conv1d_272[0][0]           │
│ (BatchNormalization)          │                           │                 │                            │
├───────────────────────────────┼───────────────────────────┼─────────────────┼────────────────────────────┤
│ activation_272 (Activation)   │ (None, 150, 40)           │               0 │ batch_normalization_272[0… │
├───────────────────────────────┼───────────────────────────┼─────────────────┼────────────────────────────┤
│ dropout_246 (Dropout)         │ (None, 150, 40)           │               0 │ activation_272[0][0]       │
├───────────────────────────────┼───────────────────────────┼─────────────────┼────────────────────────────┤
│ layer_normalization_117       │ (None, 150, 40)           │              80 │ dropout_246[0][0]          │
│ (LayerNormalization)          │                           │                 │                            │
├───────────────────────────────┼───────────────────────────┼─────────────────┼────────────────────────────┤
│ multi_head_attention_52       │ (None, 150, 40)           │          26,120 │ layer_normalization_117[0… │
│ (MultiHeadAttention)          │                           │                 │ layer_normalization_117[0… │
├───────────────────────────────┼───────────────────────────┼─────────────────┼────────────────────────────┤
│ conv1d_273 (Conv1D)           │ (None, 150, 40)           │          17,640 │ multi_head_attention_52[0… │
├───────────────────────────────┼───────────────────────────┼─────────────────┼────────────────────────────┤
│ batch_normalization_273       │ (None, 150, 40)           │             160 │ conv1d_273[0][0]           │
│ (BatchNormalization)          │                           │                 │                            │
├───────────────────────────────┼───────────────────────────┼─────────────────┼────────────────────────────┤
│ activation_273 (Activation)   │ (None, 150, 40)           │               0 │ batch_normalization_273[0… │
├───────────────────────────────┼───────────────────────────┼─────────────────┼────────────────────────────┤
│ conv1d_274 (Conv1D)           │ (None, 150, 40)           │          17,640 │ activation_273[0][0]       │
├───────────────────────────────┼───────────────────────────┼─────────────────┼────────────────────────────┤
│ batch_normalization_274       │ (None, 150, 40)           │             160 │ conv1d_274[0][0]           │
│ (BatchNormalization)          │                           │                 │                            │
├───────────────────────────────┼───────────────────────────┼─────────────────┼────────────────────────────┤
│ activation_274 (Activation)   │ (None, 150, 40)           │               0 │ batch_normalization_274[0… │
├───────────────────────────────┼───────────────────────────┼─────────────────┼────────────────────────────┤
│ add_195 (Add)                 │ (None, 150, 40)           │               0 │ activation_274[0][0],      │
│                               │                           │                 │ multi_head_attention_52[0… │
├───────────────────────────────┼───────────────────────────┼─────────────────┼────────────────────────────┤
│ conv1d_275 (Conv1D)           │ (None, 150, 40)           │          17,640 │ add_195[0][0]              │
├───────────────────────────────┼───────────────────────────┼─────────────────┼────────────────────────────┤
│ batch_normalization_275       │ (None, 150, 40)           │             160 │ conv1d_275[0][0]           │
│ (BatchNormalization)          │                           │                 │                            │
├───────────────────────────────┼───────────────────────────┼─────────────────┼────────────────────────────┤
│ activation_275 (Activation)   │ (None, 150, 40)           │               0 │ batch_normalization_275[0… │
├───────────────────────────────┼───────────────────────────┼─────────────────┼────────────────────────────┤
│ dropout_248 (Dropout)         │ (None, 150, 40)           │               0 │ activation_275[0][0]       │
├───────────────────────────────┼───────────────────────────┼─────────────────┼────────────────────────────┤
│ stochastic_depth_104          │ (None, 150, 40)           │               0 │ dropout_248[0][0]          │
│ (StochasticDepth)             │                           │                 │                            │
├───────────────────────────────┼───────────────────────────┼─────────────────┼────────────────────────────┤
│ add_196 (Add)                 │ (None, 150, 40)           │               0 │ stochastic_depth_104[0][0… │
│                               │                           │                 │ dropout_246[0][0]          │
├───────────────────────────────┼───────────────────────────┼─────────────────┼────────────────────────────┤
│ layer_normalization_118       │ (None, 150, 40)           │              80 │ add_196[0][0]              │
│ (LayerNormalization)          │                           │                 │                            │
├───────────────────────────────┼───────────────────────────┼─────────────────┼────────────────────────────┤
│ dense_118 (Dense)             │ (None, 150, 40)           │           1,640 │ layer_normalization_118[0… │
├───────────────────────────────┼───────────────────────────┼─────────────────┼────────────────────────────┤
│ dropout_249 (Dropout)         │ (None, 150, 40)           │               0 │ dense_118[0][0]            │
├───────────────────────────────┼───────────────────────────┼─────────────────┼────────────────────────────┤
│ dense_119 (Dense)             │ (None, 150, 40)           │           1,640 │ dropout_249[0][0]          │
├───────────────────────────────┼───────────────────────────┼─────────────────┼────────────────────────────┤
│ dropout_250 (Dropout)         │ (None, 150, 40)           │               0 │ dense_119[0][0]            │
├───────────────────────────────┼───────────────────────────┼─────────────────┼────────────────────────────┤
│ stochastic_depth_105          │ (None, 150, 40)           │               0 │ dropout_250[0][0]          │
│ (StochasticDepth)             │                           │                 │                            │
├───────────────────────────────┼───────────────────────────┼─────────────────┼────────────────────────────┤
│ add_197 (Add)                 │ (None, 150, 40)           │               0 │ stochastic_depth_105[0][0… │
│                               │                           │                 │ add_196[0][0]              │
├───────────────────────────────┼───────────────────────────┼─────────────────┼────────────────────────────┤
│ conv1d_276 (Conv1D)           │ (None, 150, 40)           │          17,640 │ add_197[0][0]              │
├───────────────────────────────┼───────────────────────────┼─────────────────┼────────────────────────────┤
│ batch_normalization_276       │ (None, 150, 40)           │             160 │ conv1d_276[0][0]           │
│ (BatchNormalization)          │                           │                 │                            │
├───────────────────────────────┼───────────────────────────┼─────────────────┼────────────────────────────┤
│ activation_276 (Activation)   │ (None, 150, 40)           │               0 │ batch_normalization_276[0… │
├───────────────────────────────┼───────────────────────────┼─────────────────┼────────────────────────────┤
│ conv1d_277 (Conv1D)           │ (None, 150, 40)           │          17,640 │ activation_276[0][0]       │
├───────────────────────────────┼───────────────────────────┼─────────────────┼────────────────────────────┤
│ batch_normalization_277       │ (None, 150, 40)           │             160 │ conv1d_277[0][0]           │
│ (BatchNormalization)          │                           │                 │                            │
├───────────────────────────────┼───────────────────────────┼─────────────────┼────────────────────────────┤
│ activation_277 (Activation)   │ (None, 150, 40)           │               0 │ batch_normalization_277[0… │
├───────────────────────────────┼───────────────────────────┼─────────────────┼────────────────────────────┤
│ add_198 (Add)                 │ (None, 150, 40)           │               0 │ activation_277[0][0],      │
│                               │                           │                 │ add_197[0][0]              │
├───────────────────────────────┼───────────────────────────┼─────────────────┼────────────────────────────┤
│ conv1d_278 (Conv1D)           │ (None, 150, 40)           │          17,640 │ add_198[0][0]              │
├───────────────────────────────┼───────────────────────────┼─────────────────┼────────────────────────────┤
│ batch_normalization_278       │ (None, 150, 40)           │             160 │ conv1d_278[0][0]           │
│ (BatchNormalization)          │                           │                 │                            │
├───────────────────────────────┼───────────────────────────┼─────────────────┼────────────────────────────┤
│ activation_278 (Activation)   │ (None, 150, 40)           │               0 │ batch_normalization_278[0… │
├───────────────────────────────┼───────────────────────────┼─────────────────┼────────────────────────────┤
│ dropout_251 (Dropout)         │ (None, 150, 40)           │               0 │ activation_278[0][0]       │
├───────────────────────────────┼───────────────────────────┼─────────────────┼────────────────────────────┤
│ layer_normalization_119       │ (None, 150, 40)           │              80 │ dropout_251[0][0]          │
│ (LayerNormalization)          │                           │                 │                            │
├───────────────────────────────┼───────────────────────────┼─────────────────┼────────────────────────────┤
│ multi_head_attention_53       │ (None, 150, 40)           │          26,120 │ layer_normalization_119[0… │
│ (MultiHeadAttention)          │                           │                 │ layer_normalization_119[0… │
├───────────────────────────────┼───────────────────────────┼─────────────────┼────────────────────────────┤
│ conv1d_279 (Conv1D)           │ (None, 150, 40)           │          17,640 │ multi_head_attention_53[0… │
├───────────────────────────────┼───────────────────────────┼─────────────────┼────────────────────────────┤
│ batch_normalization_279       │ (None, 150, 40)           │             160 │ conv1d_279[0][0]           │
│ (BatchNormalization)          │                           │                 │                            │
├───────────────────────────────┼───────────────────────────┼─────────────────┼────────────────────────────┤
│ activation_279 (Activation)   │ (None, 150, 40)           │               0 │ batch_normalization_279[0… │
├───────────────────────────────┼───────────────────────────┼─────────────────┼────────────────────────────┤
│ conv1d_280 (Conv1D)           │ (None, 150, 40)           │          17,640 │ activation_279[0][0]       │
├───────────────────────────────┼───────────────────────────┼─────────────────┼────────────────────────────┤
│ batch_normalization_280       │ (None, 150, 40)           │             160 │ conv1d_280[0][0]           │
│ (BatchNormalization)          │                           │                 │                            │
├───────────────────────────────┼───────────────────────────┼─────────────────┼────────────────────────────┤
│ activation_280 (Activation)   │ (None, 150, 40)           │               0 │ batch_normalization_280[0… │
├───────────────────────────────┼───────────────────────────┼─────────────────┼────────────────────────────┤
│ conv1d_252 (Conv1D)           │ (None, 6000, 3)           │             102 │ input[0][0]                │
├───────────────────────────────┼───────────────────────────┼─────────────────┼────────────────────────────┤
│ add_199 (Add)                 │ (None, 150, 40)           │               0 │ activation_280[0][0],      │
│                               │                           │                 │ multi_head_attention_53[0… │
├───────────────────────────────┼───────────────────────────┼─────────────────┼────────────────────────────┤
│ batch_normalization_252       │ (None, 6000, 3)           │              12 │ conv1d_252[0][0]           │
│ (BatchNormalization)          │                           │                 │                            │
├───────────────────────────────┼───────────────────────────┼─────────────────┼────────────────────────────┤
│ conv1d_281 (Conv1D)           │ (None, 150, 40)           │          17,640 │ add_199[0][0]              │
├───────────────────────────────┼───────────────────────────┼─────────────────┼────────────────────────────┤
│ activation_252 (Activation)   │ (None, 6000, 3)           │               0 │ batch_normalization_252[0… │
├───────────────────────────────┼───────────────────────────┼─────────────────┼────────────────────────────┤
│ batch_normalization_281       │ (None, 150, 40)           │             160 │ conv1d_281[0][0]           │
│ (BatchNormalization)          │                           │                 │                            │
├───────────────────────────────┼───────────────────────────┼─────────────────┼────────────────────────────┤
│ conv1d_253 (Conv1D)           │ (None, 6000, 3)           │             102 │ activation_252[0][0]       │
├───────────────────────────────┼───────────────────────────┼─────────────────┼────────────────────────────┤
│ activation_281 (Activation)   │ (None, 150, 40)           │               0 │ batch_normalization_281[0… │
├───────────────────────────────┼───────────────────────────┼─────────────────┼────────────────────────────┤
│ batch_normalization_253       │ (None, 6000, 3)           │              12 │ conv1d_253[0][0]           │
│ (BatchNormalization)          │                           │                 │                            │
├───────────────────────────────┼───────────────────────────┼─────────────────┼────────────────────────────┤
│ dropout_253 (Dropout)         │ (None, 150, 40)           │               0 │ activation_281[0][0]       │
├───────────────────────────────┼───────────────────────────┼─────────────────┼────────────────────────────┤
│ activation_253 (Activation)   │ (None, 6000, 3)           │               0 │ batch_normalization_253[0… │
├───────────────────────────────┼───────────────────────────┼─────────────────┼────────────────────────────┤
│ stochastic_depth_106          │ (None, 150, 40)           │               0 │ dropout_253[0][0]          │
│ (StochasticDepth)             │                           │                 │                            │
├───────────────────────────────┼───────────────────────────┼─────────────────┼────────────────────────────┤
│ add_180 (Add)                 │ (None, 6000, 3)           │               0 │ activation_253[0][0],      │
│                               │                           │                 │ input[0][0]                │
├───────────────────────────────┼───────────────────────────┼─────────────────┼────────────────────────────┤
│ add_200 (Add)                 │ (None, 150, 40)           │               0 │ stochastic_depth_106[0][0… │
│                               │                           │                 │ dropout_251[0][0]          │
├───────────────────────────────┼───────────────────────────┼─────────────────┼────────────────────────────┤
│ conv1d_254 (Conv1D)           │ (None, 6000, 10)          │             340 │ add_180[0][0]              │
├───────────────────────────────┼───────────────────────────┼─────────────────┼────────────────────────────┤
│ layer_normalization_120       │ (None, 150, 40)           │              80 │ add_200[0][0]              │
│ (LayerNormalization)          │                           │                 │                            │
├───────────────────────────────┼───────────────────────────┼─────────────────┼────────────────────────────┤
│ batch_normalization_254       │ (None, 6000, 10)          │              40 │ conv1d_254[0][0]           │
│ (BatchNormalization)          │                           │                 │                            │
├───────────────────────────────┼───────────────────────────┼─────────────────┼────────────────────────────┤
│ dense_120 (Dense)             │ (None, 150, 40)           │           1,640 │ layer_normalization_120[0… │
├───────────────────────────────┼───────────────────────────┼─────────────────┼────────────────────────────┤
│ activation_254 (Activation)   │ (None, 6000, 10)          │               0 │ batch_normalization_254[0… │
├───────────────────────────────┼───────────────────────────┼─────────────────┼────────────────────────────┤
│ dropout_254 (Dropout)         │ (None, 150, 40)           │               0 │ dense_120[0][0]            │
├───────────────────────────────┼───────────────────────────┼─────────────────┼────────────────────────────┤
│ dropout_228 (Dropout)         │ (None, 6000, 10)          │               0 │ activation_254[0][0]       │
├───────────────────────────────┼───────────────────────────┼─────────────────┼────────────────────────────┤
│ dense_121 (Dense)             │ (None, 150, 40)           │           1,640 │ dropout_254[0][0]          │
├───────────────────────────────┼───────────────────────────┼─────────────────┼────────────────────────────┤
│ conv1d_255 (Conv1D)           │ (None, 6000, 10)          │           1,110 │ dropout_228[0][0]          │
├───────────────────────────────┼───────────────────────────┼─────────────────┼────────────────────────────┤
│ dropout_255 (Dropout)         │ (None, 150, 40)           │               0 │ dense_121[0][0]            │
├───────────────────────────────┼───────────────────────────┼─────────────────┼────────────────────────────┤
│ batch_normalization_255       │ (None, 6000, 10)          │              40 │ conv1d_255[0][0]           │
│ (BatchNormalization)          │                           │                 │                            │
├───────────────────────────────┼───────────────────────────┼─────────────────┼────────────────────────────┤
│ stochastic_depth_107          │ (None, 150, 40)           │               0 │ dropout_255[0][0]          │
│ (StochasticDepth)             │                           │                 │                            │
├───────────────────────────────┼───────────────────────────┼─────────────────┼────────────────────────────┤
│ activation_255 (Activation)   │ (None, 6000, 10)          │               0 │ batch_normalization_255[0… │
├───────────────────────────────┼───────────────────────────┼─────────────────┼────────────────────────────┤
│ add_201 (Add)                 │ (None, 150, 40)           │               0 │ stochastic_depth_107[0][0… │
│                               │                           │                 │ add_200[0][0]              │
├───────────────────────────────┼───────────────────────────┼─────────────────┼────────────────────────────┤
│ conv1d_256 (Conv1D)           │ (None, 6000, 10)          │           1,110 │ activation_255[0][0]       │
├───────────────────────────────┼───────────────────────────┼─────────────────┼────────────────────────────┤
│ conv1d_282 (Conv1D)           │ (None, 150, 40)           │          17,640 │ add_201[0][0]              │
├───────────────────────────────┼───────────────────────────┼─────────────────┼────────────────────────────┤
│ batch_normalization_256       │ (None, 6000, 10)          │              40 │ conv1d_256[0][0]           │
│ (BatchNormalization)          │                           │                 │                            │
├───────────────────────────────┼───────────────────────────┼─────────────────┼────────────────────────────┤
│ batch_normalization_282       │ (None, 150, 40)           │             160 │ conv1d_282[0][0]           │
│ (BatchNormalization)          │                           │                 │                            │
├───────────────────────────────┼───────────────────────────┼─────────────────┼────────────────────────────┤
│ activation_256 (Activation)   │ (None, 6000, 10)          │               0 │ batch_normalization_256[0… │
├───────────────────────────────┼───────────────────────────┼─────────────────┼────────────────────────────┤
│ activation_282 (Activation)   │ (None, 150, 40)           │               0 │ batch_normalization_282[0… │
├───────────────────────────────┼───────────────────────────┼─────────────────┼────────────────────────────┤
│ add_181 (Add)                 │ (None, 6000, 10)          │               0 │ activation_256[0][0],      │
│                               │                           │                 │ dropout_228[0][0]          │
├───────────────────────────────┼───────────────────────────┼─────────────────┼────────────────────────────┤
│ conv1d_283 (Conv1D)           │ (None, 150, 40)           │          17,640 │ activation_282[0][0]       │
├───────────────────────────────┼───────────────────────────┼─────────────────┼────────────────────────────┤
│ conv1d_257 (Conv1D)           │ (None, 6000, 20)          │           2,220 │ add_181[0][0]              │
├───────────────────────────────┼───────────────────────────┼─────────────────┼────────────────────────────┤
│ batch_normalization_283       │ (None, 150, 40)           │             160 │ conv1d_283[0][0]           │
│ (BatchNormalization)          │                           │                 │                            │
├───────────────────────────────┼───────────────────────────┼─────────────────┼────────────────────────────┤
│ batch_normalization_257       │ (None, 6000, 20)          │              80 │ conv1d_257[0][0]           │
│ (BatchNormalization)          │                           │                 │                            │
├───────────────────────────────┼───────────────────────────┼─────────────────┼────────────────────────────┤
│ activation_283 (Activation)   │ (None, 150, 40)           │               0 │ batch_normalization_283[0… │
├───────────────────────────────┼───────────────────────────┼─────────────────┼────────────────────────────┤
│ activation_257 (Activation)   │ (None, 6000, 20)          │               0 │ batch_normalization_257[0… │
├───────────────────────────────┼───────────────────────────┼─────────────────┼────────────────────────────┤
│ add_202 (Add)                 │ (None, 150, 40)           │               0 │ activation_283[0][0],      │
│                               │                           │                 │ add_201[0][0]              │
├───────────────────────────────┼───────────────────────────┼─────────────────┼────────────────────────────┤
│ dropout_229 (Dropout)         │ (None, 6000, 20)          │               0 │ activation_257[0][0]       │
├───────────────────────────────┼───────────────────────────┼─────────────────┼────────────────────────────┤
│ conv1d_284 (Conv1D)           │ (None, 150, 40)           │          17,640 │ add_202[0][0]              │
├───────────────────────────────┼───────────────────────────┼─────────────────┼────────────────────────────┤
│ conv1d_258 (Conv1D)           │ (None, 6000, 20)          │           4,420 │ dropout_229[0][0]          │
├───────────────────────────────┼───────────────────────────┼─────────────────┼────────────────────────────┤
│ batch_normalization_284       │ (None, 150, 40)           │             160 │ conv1d_284[0][0]           │
│ (BatchNormalization)          │                           │                 │                            │
├───────────────────────────────┼───────────────────────────┼─────────────────┼────────────────────────────┤
│ batch_normalization_258       │ (None, 6000, 20)          │              80 │ conv1d_258[0][0]           │
│ (BatchNormalization)          │                           │                 │                            │
├───────────────────────────────┼───────────────────────────┼─────────────────┼────────────────────────────┤
│ activation_284 (Activation)   │ (None, 150, 40)           │               0 │ batch_normalization_284[0… │
├───────────────────────────────┼───────────────────────────┼─────────────────┼────────────────────────────┤
│ activation_258 (Activation)   │ (None, 6000, 20)          │               0 │ batch_normalization_258[0… │
├───────────────────────────────┼───────────────────────────┼─────────────────┼────────────────────────────┤
│ dropout_256 (Dropout)         │ (None, 150, 40)           │               0 │ activation_284[0][0]       │
├───────────────────────────────┼───────────────────────────┼─────────────────┼────────────────────────────┤
│ conv1d_259 (Conv1D)           │ (None, 6000, 20)          │           4,420 │ activation_258[0][0]       │
├───────────────────────────────┼───────────────────────────┼─────────────────┼────────────────────────────┤
│ layer_normalization_121       │ (None, 150, 40)           │              80 │ dropout_256[0][0]          │
│ (LayerNormalization)          │                           │                 │                            │
├───────────────────────────────┼───────────────────────────┼─────────────────┼────────────────────────────┤
│ batch_normalization_259       │ (None, 6000, 20)          │              80 │ conv1d_259[0][0]           │
│ (BatchNormalization)          │                           │                 │                            │
├───────────────────────────────┼───────────────────────────┼─────────────────┼────────────────────────────┤
│ multi_head_attention_54       │ (None, 150, 40)           │          26,120 │ layer_normalization_121[0… │
│ (MultiHeadAttention)          │                           │                 │ layer_normalization_121[0… │
├───────────────────────────────┼───────────────────────────┼─────────────────┼────────────────────────────┤
│ activation_259 (Activation)   │ (None, 6000, 20)          │               0 │ batch_normalization_259[0… │
├───────────────────────────────┼───────────────────────────┼─────────────────┼────────────────────────────┤
│ conv1d_285 (Conv1D)           │ (None, 150, 40)           │          17,640 │ multi_head_attention_54[0… │
├───────────────────────────────┼───────────────────────────┼─────────────────┼────────────────────────────┤
│ add_182 (Add)                 │ (None, 6000, 20)          │               0 │ activation_259[0][0],      │
│                               │                           │                 │ dropout_229[0][0]          │
├───────────────────────────────┼───────────────────────────┼─────────────────┼────────────────────────────┤
│ batch_normalization_285       │ (None, 150, 40)           │             160 │ conv1d_285[0][0]           │
│ (BatchNormalization)          │                           │                 │                            │
├───────────────────────────────┼───────────────────────────┼─────────────────┼────────────────────────────┤
│ conv1d_260 (Conv1D)           │ (None, 6000, 40)          │           8,840 │ add_182[0][0]              │
├───────────────────────────────┼───────────────────────────┼─────────────────┼────────────────────────────┤
│ activation_285 (Activation)   │ (None, 150, 40)           │               0 │ batch_normalization_285[0… │
├───────────────────────────────┼───────────────────────────┼─────────────────┼────────────────────────────┤
│ batch_normalization_260       │ (None, 6000, 40)          │             160 │ conv1d_260[0][0]           │
│ (BatchNormalization)          │                           │                 │                            │
├───────────────────────────────┼───────────────────────────┼─────────────────┼────────────────────────────┤
│ conv1d_286 (Conv1D)           │ (None, 150, 40)           │          17,640 │ activation_285[0][0]       │
├───────────────────────────────┼───────────────────────────┼─────────────────┼────────────────────────────┤
│ activation_260 (Activation)   │ (None, 6000, 40)          │               0 │ batch_normalization_260[0… │
├───────────────────────────────┼───────────────────────────┼─────────────────┼────────────────────────────┤
│ batch_normalization_286       │ (None, 150, 40)           │             160 │ conv1d_286[0][0]           │
│ (BatchNormalization)          │                           │                 │                            │
├───────────────────────────────┼───────────────────────────┼─────────────────┼────────────────────────────┤
│ dropout_230 (Dropout)         │ (None, 6000, 40)          │               0 │ activation_260[0][0]       │
├───────────────────────────────┼───────────────────────────┼─────────────────┼────────────────────────────┤
│ activation_286 (Activation)   │ (None, 150, 40)           │               0 │ batch_normalization_286[0… │
├───────────────────────────────┼───────────────────────────┼─────────────────┼────────────────────────────┤
│ reshape_24 (Reshape)          │ (None, 6000, 1, 40)       │               0 │ dropout_230[0][0]          │
├───────────────────────────────┼───────────────────────────┼─────────────────┼────────────────────────────┤
│ add_203 (Add)                 │ (None, 150, 40)           │               0 │ activation_286[0][0],      │
│                               │                           │                 │ multi_head_attention_54[0… │
├───────────────────────────────┼───────────────────────────┼─────────────────┼────────────────────────────┤
│ patches_12 (Patches)          │ (None, None, 1600)        │               0 │ reshape_24[0][0]           │
├───────────────────────────────┼───────────────────────────┼─────────────────┼────────────────────────────┤
│ conv1d_287 (Conv1D)           │ (None, 150, 40)           │          17,640 │ add_203[0][0]              │
├───────────────────────────────┼───────────────────────────┼─────────────────┼────────────────────────────┤
│ patch_encoder_12              │ (None, 150, 40)           │          70,040 │ patches_12[0][0]           │
│ (PatchEncoder)                │                           │                 │                            │
├───────────────────────────────┼───────────────────────────┼─────────────────┼────────────────────────────┤
│ batch_normalization_287       │ (None, 150, 40)           │             160 │ conv1d_287[0][0]           │
│ (BatchNormalization)          │                           │                 │                            │
├───────────────────────────────┼───────────────────────────┼─────────────────┼────────────────────────────┤
│ layer_normalization_108       │ (None, 150, 40)           │              80 │ patch_encoder_12[0][0]     │
│ (LayerNormalization)          │                           │                 │                            │
├───────────────────────────────┼───────────────────────────┼─────────────────┼────────────────────────────┤
│ activation_287 (Activation)   │ (None, 150, 40)           │               0 │ batch_normalization_287[0… │
├───────────────────────────────┼───────────────────────────┼─────────────────┼────────────────────────────┤
│ multi_head_attention_48       │ (None, 150, 40)           │          26,120 │ layer_normalization_108[0… │
│ (MultiHeadAttention)          │                           │                 │ layer_normalization_108[0… │
├───────────────────────────────┼───────────────────────────┼─────────────────┼────────────────────────────┤
│ dropout_258 (Dropout)         │ (None, 150, 40)           │               0 │ activation_287[0][0]       │
├───────────────────────────────┼───────────────────────────┼─────────────────┼────────────────────────────┤
│ stochastic_depth_96           │ (None, 150, 40)           │               0 │ multi_head_attention_48[0… │
│ (StochasticDepth)             │                           │                 │                            │
├───────────────────────────────┼───────────────────────────┼─────────────────┼────────────────────────────┤
│ stochastic_depth_108          │ (None, 150, 40)           │               0 │ dropout_258[0][0]          │
│ (StochasticDepth)             │                           │                 │                            │
├───────────────────────────────┼───────────────────────────┼─────────────────┼────────────────────────────┤
│ add_183 (Add)                 │ (None, 150, 40)           │               0 │ stochastic_depth_96[0][0], │
│                               │                           │                 │ patch_encoder_12[0][0]     │
├───────────────────────────────┼───────────────────────────┼─────────────────┼────────────────────────────┤
│ add_204 (Add)                 │ (None, 150, 40)           │               0 │ stochastic_depth_108[0][0… │
│                               │                           │                 │ dropout_256[0][0]          │
├───────────────────────────────┼───────────────────────────┼─────────────────┼────────────────────────────┤
│ layer_normalization_109       │ (None, 150, 40)           │              80 │ add_183[0][0]              │
│ (LayerNormalization)          │                           │                 │                            │
├───────────────────────────────┼───────────────────────────┼─────────────────┼────────────────────────────┤
│ layer_normalization_122       │ (None, 150, 40)           │              80 │ add_204[0][0]              │
│ (LayerNormalization)          │                           │                 │                            │
├───────────────────────────────┼───────────────────────────┼─────────────────┼────────────────────────────┤
│ dense_109 (Dense)             │ (None, 150, 40)           │           1,640 │ layer_normalization_109[0… │
├───────────────────────────────┼───────────────────────────┼─────────────────┼────────────────────────────┤
│ dense_122 (Dense)             │ (None, 150, 40)           │           1,640 │ layer_normalization_122[0… │
├───────────────────────────────┼───────────────────────────┼─────────────────┼────────────────────────────┤
│ dropout_232 (Dropout)         │ (None, 150, 40)           │               0 │ dense_109[0][0]            │
├───────────────────────────────┼───────────────────────────┼─────────────────┼────────────────────────────┤
│ dropout_259 (Dropout)         │ (None, 150, 40)           │               0 │ dense_122[0][0]            │
├───────────────────────────────┼───────────────────────────┼─────────────────┼────────────────────────────┤
│ dense_110 (Dense)             │ (None, 150, 40)           │           1,640 │ dropout_232[0][0]          │
├───────────────────────────────┼───────────────────────────┼─────────────────┼────────────────────────────┤
│ dense_123 (Dense)             │ (None, 150, 40)           │           1,640 │ dropout_259[0][0]          │
├───────────────────────────────┼───────────────────────────┼─────────────────┼────────────────────────────┤
│ dropout_233 (Dropout)         │ (None, 150, 40)           │               0 │ dense_110[0][0]            │
├───────────────────────────────┼───────────────────────────┼─────────────────┼────────────────────────────┤
│ dropout_260 (Dropout)         │ (None, 150, 40)           │               0 │ dense_123[0][0]            │
├───────────────────────────────┼───────────────────────────┼─────────────────┼────────────────────────────┤
│ stochastic_depth_97           │ (None, 150, 40)           │               0 │ dropout_233[0][0]          │
│ (StochasticDepth)             │                           │                 │                            │
├───────────────────────────────┼───────────────────────────┼─────────────────┼────────────────────────────┤
│ stochastic_depth_109          │ (None, 150, 40)           │               0 │ dropout_260[0][0]          │
│ (StochasticDepth)             │                           │                 │                            │
├───────────────────────────────┼───────────────────────────┼─────────────────┼────────────────────────────┤
│ add_184 (Add)                 │ (None, 150, 40)           │               0 │ stochastic_depth_97[0][0], │
│                               │                           │                 │ add_183[0][0]              │
├───────────────────────────────┼───────────────────────────┼─────────────────┼────────────────────────────┤
│ add_205 (Add)                 │ (None, 150, 40)           │               0 │ stochastic_depth_109[0][0… │
│                               │                           │                 │ add_204[0][0]              │
├───────────────────────────────┼───────────────────────────┼─────────────────┼────────────────────────────┤
│ layer_normalization_110       │ (None, 150, 40)           │              80 │ add_184[0][0]              │
│ (LayerNormalization)          │                           │                 │                            │
├───────────────────────────────┼───────────────────────────┼─────────────────┼────────────────────────────┤
│ conv1d_288 (Conv1D)           │ (None, 150, 40)           │          17,640 │ add_205[0][0]              │
├───────────────────────────────┼───────────────────────────┼─────────────────┼────────────────────────────┤
│ multi_head_attention_49       │ (None, 150, 40)           │          26,120 │ layer_normalization_110[0… │
│ (MultiHeadAttention)          │                           │                 │ layer_normalization_110[0… │
├───────────────────────────────┼───────────────────────────┼─────────────────┼────────────────────────────┤
│ batch_normalization_288       │ (None, 150, 40)           │             160 │ conv1d_288[0][0]           │
│ (BatchNormalization)          │                           │                 │                            │
├───────────────────────────────┼───────────────────────────┼─────────────────┼────────────────────────────┤
│ stochastic_depth_98           │ (None, 150, 40)           │               0 │ multi_head_attention_49[0… │
│ (StochasticDepth)             │                           │                 │                            │
├───────────────────────────────┼───────────────────────────┼─────────────────┼────────────────────────────┤
│ activation_288 (Activation)   │ (None, 150, 40)           │               0 │ batch_normalization_288[0… │
├───────────────────────────────┼───────────────────────────┼─────────────────┼────────────────────────────┤
│ add_185 (Add)                 │ (None, 150, 40)           │               0 │ stochastic_depth_98[0][0], │
│                               │                           │                 │ add_184[0][0]              │
├───────────────────────────────┼───────────────────────────┼─────────────────┼────────────────────────────┤
│ conv1d_289 (Conv1D)           │ (None, 150, 40)           │          17,640 │ activation_288[0][0]       │
├───────────────────────────────┼───────────────────────────┼─────────────────┼────────────────────────────┤
│ layer_normalization_111       │ (None, 150, 40)           │              80 │ add_185[0][0]              │
│ (LayerNormalization)          │                           │                 │                            │
├───────────────────────────────┼───────────────────────────┼─────────────────┼────────────────────────────┤
│ batch_normalization_289       │ (None, 150, 40)           │             160 │ conv1d_289[0][0]           │
│ (BatchNormalization)          │                           │                 │                            │
├───────────────────────────────┼───────────────────────────┼─────────────────┼────────────────────────────┤
│ dense_111 (Dense)             │ (None, 150, 40)           │           1,640 │ layer_normalization_111[0… │
├───────────────────────────────┼───────────────────────────┼─────────────────┼────────────────────────────┤
│ activation_289 (Activation)   │ (None, 150, 40)           │               0 │ batch_normalization_289[0… │
├───────────────────────────────┼───────────────────────────┼─────────────────┼────────────────────────────┤
│ dropout_235 (Dropout)         │ (None, 150, 40)           │               0 │ dense_111[0][0]            │
├───────────────────────────────┼───────────────────────────┼─────────────────┼────────────────────────────┤
│ add_206 (Add)                 │ (None, 150, 40)           │               0 │ activation_289[0][0],      │
│                               │                           │                 │ add_205[0][0]              │
├───────────────────────────────┼───────────────────────────┼─────────────────┼────────────────────────────┤
│ dense_112 (Dense)             │ (None, 150, 40)           │           1,640 │ dropout_235[0][0]          │
├───────────────────────────────┼───────────────────────────┼─────────────────┼────────────────────────────┤
│ conv1d_290 (Conv1D)           │ (None, 150, 40)           │          17,640 │ add_206[0][0]              │
├───────────────────────────────┼───────────────────────────┼─────────────────┼────────────────────────────┤
│ dropout_236 (Dropout)         │ (None, 150, 40)           │               0 │ dense_112[0][0]            │
├───────────────────────────────┼───────────────────────────┼─────────────────┼────────────────────────────┤
│ batch_normalization_290       │ (None, 150, 40)           │             160 │ conv1d_290[0][0]           │
│ (BatchNormalization)          │                           │                 │                            │
├───────────────────────────────┼───────────────────────────┼─────────────────┼────────────────────────────┤
│ stochastic_depth_99           │ (None, 150, 40)           │               0 │ dropout_236[0][0]          │
│ (StochasticDepth)             │                           │                 │                            │
├───────────────────────────────┼───────────────────────────┼─────────────────┼────────────────────────────┤
│ activation_290 (Activation)   │ (None, 150, 40)           │               0 │ batch_normalization_290[0… │
├───────────────────────────────┼───────────────────────────┼─────────────────┼────────────────────────────┤
│ add_186 (Add)                 │ (None, 150, 40)           │               0 │ stochastic_depth_99[0][0], │
│                               │                           │                 │ add_185[0][0]              │
├───────────────────────────────┼───────────────────────────┼─────────────────┼────────────────────────────┤
│ dropout_261 (Dropout)         │ (None, 150, 40)           │               0 │ activation_290[0][0]       │
├───────────────────────────────┼───────────────────────────┼─────────────────┼────────────────────────────┤
│ layer_normalization_112       │ (None, 150, 40)           │              80 │ add_186[0][0]              │
│ (LayerNormalization)          │                           │                 │                            │
├───────────────────────────────┼───────────────────────────┼─────────────────┼────────────────────────────┤
│ layer_normalization_123       │ (None, 150, 40)           │              80 │ dropout_261[0][0]          │
│ (LayerNormalization)          │                           │                 │                            │
├───────────────────────────────┼───────────────────────────┼─────────────────┼────────────────────────────┤
│ multi_head_attention_50       │ (None, 150, 40)           │          26,120 │ layer_normalization_112[0… │
│ (MultiHeadAttention)          │                           │                 │ layer_normalization_112[0… │
├───────────────────────────────┼───────────────────────────┼─────────────────┼────────────────────────────┤
│ multi_head_attention_55       │ (None, 150, 40)           │          26,120 │ layer_normalization_123[0… │
│ (MultiHeadAttention)          │                           │                 │ layer_normalization_123[0… │
├───────────────────────────────┼───────────────────────────┼─────────────────┼────────────────────────────┤
│ stochastic_depth_100          │ (None, 150, 40)           │               0 │ multi_head_attention_50[0… │
│ (StochasticDepth)             │                           │                 │                            │
├───────────────────────────────┼───────────────────────────┼─────────────────┼────────────────────────────┤
│ conv1d_291 (Conv1D)           │ (None, 150, 40)           │          17,640 │ multi_head_attention_55[0… │
├───────────────────────────────┼───────────────────────────┼─────────────────┼────────────────────────────┤
│ add_187 (Add)                 │ (None, 150, 40)           │               0 │ stochastic_depth_100[0][0… │
│                               │                           │                 │ add_186[0][0]              │
├───────────────────────────────┼───────────────────────────┼─────────────────┼────────────────────────────┤
│ batch_normalization_291       │ (None, 150, 40)           │             160 │ conv1d_291[0][0]           │
│ (BatchNormalization)          │                           │                 │                            │
├───────────────────────────────┼───────────────────────────┼─────────────────┼────────────────────────────┤
│ layer_normalization_113       │ (None, 150, 40)           │              80 │ add_187[0][0]              │
│ (LayerNormalization)          │                           │                 │                            │
├───────────────────────────────┼───────────────────────────┼─────────────────┼────────────────────────────┤
│ activation_291 (Activation)   │ (None, 150, 40)           │               0 │ batch_normalization_291[0… │
├───────────────────────────────┼───────────────────────────┼─────────────────┼────────────────────────────┤
│ dense_113 (Dense)             │ (None, 150, 40)           │           1,640 │ layer_normalization_113[0… │
├───────────────────────────────┼───────────────────────────┼─────────────────┼────────────────────────────┤
│ conv1d_292 (Conv1D)           │ (None, 150, 40)           │          17,640 │ activation_291[0][0]       │
├───────────────────────────────┼───────────────────────────┼─────────────────┼────────────────────────────┤
│ dropout_238 (Dropout)         │ (None, 150, 40)           │               0 │ dense_113[0][0]            │
├───────────────────────────────┼───────────────────────────┼─────────────────┼────────────────────────────┤
│ batch_normalization_292       │ (None, 150, 40)           │             160 │ conv1d_292[0][0]           │
│ (BatchNormalization)          │                           │                 │                            │
├───────────────────────────────┼───────────────────────────┼─────────────────┼────────────────────────────┤
│ dense_114 (Dense)             │ (None, 150, 40)           │           1,640 │ dropout_238[0][0]          │
├───────────────────────────────┼───────────────────────────┼─────────────────┼────────────────────────────┤
│ activation_292 (Activation)   │ (None, 150, 40)           │               0 │ batch_normalization_292[0… │
├───────────────────────────────┼───────────────────────────┼─────────────────┼────────────────────────────┤
│ dropout_239 (Dropout)         │ (None, 150, 40)           │               0 │ dense_114[0][0]            │
├───────────────────────────────┼───────────────────────────┼─────────────────┼────────────────────────────┤
│ add_207 (Add)                 │ (None, 150, 40)           │               0 │ activation_292[0][0],      │
│                               │                           │                 │ multi_head_attention_55[0… │
├───────────────────────────────┼───────────────────────────┼─────────────────┼────────────────────────────┤
│ stochastic_depth_101          │ (None, 150, 40)           │               0 │ dropout_239[0][0]          │
│ (StochasticDepth)             │                           │                 │                            │
├───────────────────────────────┼───────────────────────────┼─────────────────┼────────────────────────────┤
│ conv1d_293 (Conv1D)           │ (None, 150, 40)           │          17,640 │ add_207[0][0]              │
├───────────────────────────────┼───────────────────────────┼─────────────────┼────────────────────────────┤
│ add_188 (Add)                 │ (None, 150, 40)           │               0 │ stochastic_depth_101[0][0… │
│                               │                           │                 │ add_187[0][0]              │
├───────────────────────────────┼───────────────────────────┼─────────────────┼────────────────────────────┤
│ batch_normalization_293       │ (None, 150, 40)           │             160 │ conv1d_293[0][0]           │
│ (BatchNormalization)          │                           │                 │                            │
├───────────────────────────────┼───────────────────────────┼─────────────────┼────────────────────────────┤
│ layer_normalization_114       │ (None, 150, 40)           │              80 │ add_188[0][0]              │
│ (LayerNormalization)          │                           │                 │                            │
├───────────────────────────────┼───────────────────────────┼─────────────────┼────────────────────────────┤
│ activation_293 (Activation)   │ (None, 150, 40)           │               0 │ batch_normalization_293[0… │
├───────────────────────────────┼───────────────────────────┼─────────────────┼────────────────────────────┤
│ multi_head_attention_51       │ (None, 150, 40)           │          26,120 │ layer_normalization_114[0… │
│ (MultiHeadAttention)          │                           │                 │ layer_normalization_114[0… │
├───────────────────────────────┼───────────────────────────┼─────────────────┼────────────────────────────┤
│ dropout_263 (Dropout)         │ (None, 150, 40)           │               0 │ activation_293[0][0]       │
├───────────────────────────────┼───────────────────────────┼─────────────────┼────────────────────────────┤
│ stochastic_depth_102          │ (None, 150, 40)           │               0 │ multi_head_attention_51[0… │
│ (StochasticDepth)             │                           │                 │                            │
├───────────────────────────────┼───────────────────────────┼─────────────────┼────────────────────────────┤
│ stochastic_depth_110          │ (None, 150, 40)           │               0 │ dropout_263[0][0]          │
│ (StochasticDepth)             │                           │                 │                            │
├───────────────────────────────┼───────────────────────────┼─────────────────┼────────────────────────────┤
│ add_189 (Add)                 │ (None, 150, 40)           │               0 │ stochastic_depth_102[0][0… │
│                               │                           │                 │ add_188[0][0]              │
├───────────────────────────────┼───────────────────────────┼─────────────────┼────────────────────────────┤
│ add_208 (Add)                 │ (None, 150, 40)           │               0 │ stochastic_depth_110[0][0… │
│                               │                           │                 │ dropout_261[0][0]          │
├───────────────────────────────┼───────────────────────────┼─────────────────┼────────────────────────────┤
│ layer_normalization_115       │ (None, 150, 40)           │              80 │ add_189[0][0]              │
│ (LayerNormalization)          │                           │                 │                            │
├───────────────────────────────┼───────────────────────────┼─────────────────┼────────────────────────────┤
│ layer_normalization_124       │ (None, 150, 40)           │              80 │ add_208[0][0]              │
│ (LayerNormalization)          │                           │                 │                            │
├───────────────────────────────┼───────────────────────────┼─────────────────┼────────────────────────────┤
│ dense_115 (Dense)             │ (None, 150, 40)           │           1,640 │ layer_normalization_115[0… │
├───────────────────────────────┼───────────────────────────┼─────────────────┼────────────────────────────┤
│ dense_124 (Dense)             │ (None, 150, 40)           │           1,640 │ layer_normalization_124[0… │
├───────────────────────────────┼───────────────────────────┼─────────────────┼────────────────────────────┤
│ dropout_241 (Dropout)         │ (None, 150, 40)           │               0 │ dense_115[0][0]            │
├───────────────────────────────┼───────────────────────────┼─────────────────┼────────────────────────────┤
│ dropout_264 (Dropout)         │ (None, 150, 40)           │               0 │ dense_124[0][0]            │
├───────────────────────────────┼───────────────────────────┼─────────────────┼────────────────────────────┤
│ dense_116 (Dense)             │ (None, 150, 40)           │           1,640 │ dropout_241[0][0]          │
├───────────────────────────────┼───────────────────────────┼─────────────────┼────────────────────────────┤
│ dense_125 (Dense)             │ (None, 150, 40)           │           1,640 │ dropout_264[0][0]          │
├───────────────────────────────┼───────────────────────────┼─────────────────┼────────────────────────────┤
│ dropout_242 (Dropout)         │ (None, 150, 40)           │               0 │ dense_116[0][0]            │
├───────────────────────────────┼───────────────────────────┼─────────────────┼────────────────────────────┤
│ dropout_265 (Dropout)         │ (None, 150, 40)           │               0 │ dense_125[0][0]            │
├───────────────────────────────┼───────────────────────────┼─────────────────┼────────────────────────────┤
│ stochastic_depth_103          │ (None, 150, 40)           │               0 │ dropout_242[0][0]          │
│ (StochasticDepth)             │                           │                 │                            │
├───────────────────────────────┼───────────────────────────┼─────────────────┼────────────────────────────┤
│ stochastic_depth_111          │ (None, 150, 40)           │               0 │ dropout_265[0][0]          │
│ (StochasticDepth)             │                           │                 │                            │
├───────────────────────────────┼───────────────────────────┼─────────────────┼────────────────────────────┤
│ add_190 (Add)                 │ (None, 150, 40)           │               0 │ stochastic_depth_103[0][0… │
│                               │                           │                 │ add_189[0][0]              │
├───────────────────────────────┼───────────────────────────┼─────────────────┼────────────────────────────┤
│ add_209 (Add)                 │ (None, 150, 40)           │               0 │ stochastic_depth_111[0][0… │
│                               │                           │                 │ add_208[0][0]              │
├───────────────────────────────┼───────────────────────────┼─────────────────┼────────────────────────────┤
│ layer_normalization_116       │ (None, 150, 40)           │              80 │ add_190[0][0]              │
│ (LayerNormalization)          │                           │                 │                            │
├───────────────────────────────┼───────────────────────────┼─────────────────┼────────────────────────────┤
│ layer_normalization_125       │ (None, 150, 40)           │              80 │ add_209[0][0]              │
│ (LayerNormalization)          │                           │                 │                            │
├───────────────────────────────┼───────────────────────────┼─────────────────┼────────────────────────────┤
│ reshape_25 (Reshape)          │ (None, 6000, 1)           │               0 │ layer_normalization_116[0… │
├───────────────────────────────┼───────────────────────────┼─────────────────┼────────────────────────────┤
│ reshape_27 (Reshape)          │ (None, 6000, 1)           │               0 │ layer_normalization_125[0… │
├───────────────────────────────┼───────────────────────────┼─────────────────┼────────────────────────────┤
│ picker_P (Conv1D)             │ (None, 6000, 1)           │              16 │ reshape_25[0][0]           │
├───────────────────────────────┼───────────────────────────┼─────────────────┼────────────────────────────┤
│ picker_S (Conv1D)             │ (None, 6000, 1)           │              16 │ reshape_27[0][0]           │
└───────────────────────────────┴───────────────────────────┴─────────────────┴────────────────────────────┘
 Total params: 850,368 (3.24 MB)
 Trainable params: 847,904 (3.23 MB)
 Non-trainable params: 2,464 (9.62 KB)
*** Loading is complete!