*** Loading the model ...
Model: "functional_3152"
┏━━━━━━━━━━━━━━━━━━━━━━━━━━━━━━━┳━━━━━━━━━━━━━━━━━━━━━━━━━━━┳━━━━━━━━━━━━━━━━━┳━━━━━━━━━━━━━━━━━━━━━━━━━━━━┓
┃ Layer (type)                  ┃ Output Shape              ┃         Param # ┃ Connected to               ┃
┡━━━━━━━━━━━━━━━━━━━━━━━━━━━━━━━╇━━━━━━━━━━━━━━━━━━━━━━━━━━━╇━━━━━━━━━━━━━━━━━╇━━━━━━━━━━━━━━━━━━━━━━━━━━━━┩
│ input (InputLayer)            │ (None, 6000, 3)           │               0 │ -                          │
├───────────────────────────────┼───────────────────────────┼─────────────────┼────────────────────────────┤
│ conv1d_44109 (Conv1D)         │ (None, 6000, 3)           │             102 │ input[0][0]                │
├───────────────────────────────┼───────────────────────────┼─────────────────┼────────────────────────────┤
│ batch_normalization_44109     │ (None, 6000, 3)           │              12 │ conv1d_44109[0][0]         │
│ (BatchNormalization)          │                           │                 │                            │
├───────────────────────────────┼───────────────────────────┼─────────────────┼────────────────────────────┤
│ activation_44109 (Activation) │ (None, 6000, 3)           │               0 │ batch_normalization_44109… │
├───────────────────────────────┼───────────────────────────┼─────────────────┼────────────────────────────┤
│ conv1d_44110 (Conv1D)         │ (None, 6000, 3)           │             102 │ activation_44109[0][0]     │
├───────────────────────────────┼───────────────────────────┼─────────────────┼────────────────────────────┤
│ batch_normalization_44110     │ (None, 6000, 3)           │              12 │ conv1d_44110[0][0]         │
│ (BatchNormalization)          │                           │                 │                            │
├───────────────────────────────┼───────────────────────────┼─────────────────┼────────────────────────────┤
│ activation_44110 (Activation) │ (None, 6000, 3)           │               0 │ batch_normalization_44110… │
├───────────────────────────────┼───────────────────────────┼─────────────────┼────────────────────────────┤
│ add_31511 (Add)               │ (None, 6000, 3)           │               0 │ activation_44110[0][0],    │
│                               │                           │                 │ input[0][0]                │
├───────────────────────────────┼───────────────────────────┼─────────────────┼────────────────────────────┤
│ conv1d_44111 (Conv1D)         │ (None, 6000, 10)          │             340 │ add_31511[0][0]            │
├───────────────────────────────┼───────────────────────────┼─────────────────┼────────────────────────────┤
│ batch_normalization_44111     │ (None, 6000, 10)          │              40 │ conv1d_44111[0][0]         │
│ (BatchNormalization)          │                           │                 │                            │
├───────────────────────────────┼───────────────────────────┼─────────────────┼────────────────────────────┤
│ activation_44111 (Activation) │ (None, 6000, 10)          │               0 │ batch_normalization_44111… │
├───────────────────────────────┼───────────────────────────┼─────────────────┼────────────────────────────┤
│ dropout_39915 (Dropout)       │ (None, 6000, 10)          │               0 │ activation_44111[0][0]     │
├───────────────────────────────┼───────────────────────────┼─────────────────┼────────────────────────────┤
│ conv1d_44112 (Conv1D)         │ (None, 6000, 10)          │           1,110 │ dropout_39915[0][0]        │
├───────────────────────────────┼───────────────────────────┼─────────────────┼────────────────────────────┤
│ batch_normalization_44112     │ (None, 6000, 10)          │              40 │ conv1d_44112[0][0]         │
│ (BatchNormalization)          │                           │                 │                            │
├───────────────────────────────┼───────────────────────────┼─────────────────┼────────────────────────────┤
│ activation_44112 (Activation) │ (None, 6000, 10)          │               0 │ batch_normalization_44112… │
├───────────────────────────────┼───────────────────────────┼─────────────────┼────────────────────────────┤
│ conv1d_44113 (Conv1D)         │ (None, 6000, 10)          │           1,110 │ activation_44112[0][0]     │
├───────────────────────────────┼───────────────────────────┼─────────────────┼────────────────────────────┤
│ batch_normalization_44113     │ (None, 6000, 10)          │              40 │ conv1d_44113[0][0]         │
│ (BatchNormalization)          │                           │                 │                            │
├───────────────────────────────┼───────────────────────────┼─────────────────┼────────────────────────────┤
│ activation_44113 (Activation) │ (None, 6000, 10)          │               0 │ batch_normalization_44113… │
├───────────────────────────────┼───────────────────────────┼─────────────────┼────────────────────────────┤
│ add_31512 (Add)               │ (None, 6000, 10)          │               0 │ activation_44113[0][0],    │
│                               │                           │                 │ dropout_39915[0][0]        │
├───────────────────────────────┼───────────────────────────┼─────────────────┼────────────────────────────┤
│ conv1d_44114 (Conv1D)         │ (None, 6000, 20)          │           2,220 │ add_31512[0][0]            │
├───────────────────────────────┼───────────────────────────┼─────────────────┼────────────────────────────┤
│ batch_normalization_44114     │ (None, 6000, 20)          │              80 │ conv1d_44114[0][0]         │
│ (BatchNormalization)          │                           │                 │                            │
├───────────────────────────────┼───────────────────────────┼─────────────────┼────────────────────────────┤
│ activation_44114 (Activation) │ (None, 6000, 20)          │               0 │ batch_normalization_44114… │
├───────────────────────────────┼───────────────────────────┼─────────────────┼────────────────────────────┤
│ dropout_39916 (Dropout)       │ (None, 6000, 20)          │               0 │ activation_44114[0][0]     │
├───────────────────────────────┼───────────────────────────┼─────────────────┼────────────────────────────┤
│ conv1d_44115 (Conv1D)         │ (None, 6000, 20)          │           4,420 │ dropout_39916[0][0]        │
├───────────────────────────────┼───────────────────────────┼─────────────────┼────────────────────────────┤
│ batch_normalization_44115     │ (None, 6000, 20)          │              80 │ conv1d_44115[0][0]         │
│ (BatchNormalization)          │                           │                 │                            │
├───────────────────────────────┼───────────────────────────┼─────────────────┼────────────────────────────┤
│ activation_44115 (Activation) │ (None, 6000, 20)          │               0 │ batch_normalization_44115… │
├───────────────────────────────┼───────────────────────────┼─────────────────┼────────────────────────────┤
│ conv1d_44116 (Conv1D)         │ (None, 6000, 20)          │           4,420 │ activation_44115[0][0]     │
├───────────────────────────────┼───────────────────────────┼─────────────────┼────────────────────────────┤
│ batch_normalization_44116     │ (None, 6000, 20)          │              80 │ conv1d_44116[0][0]         │
│ (BatchNormalization)          │                           │                 │                            │
├───────────────────────────────┼───────────────────────────┼─────────────────┼────────────────────────────┤
│ activation_44116 (Activation) │ (None, 6000, 20)          │               0 │ batch_normalization_44116… │
├───────────────────────────────┼───────────────────────────┼─────────────────┼────────────────────────────┤
│ add_31513 (Add)               │ (None, 6000, 20)          │               0 │ activation_44116[0][0],    │
│                               │                           │                 │ dropout_39916[0][0]        │
├───────────────────────────────┼───────────────────────────┼─────────────────┼────────────────────────────┤
│ conv1d_44117 (Conv1D)         │ (None, 6000, 40)          │           8,840 │ add_31513[0][0]            │
├───────────────────────────────┼───────────────────────────┼─────────────────┼────────────────────────────┤
│ batch_normalization_44117     │ (None, 6000, 40)          │             160 │ conv1d_44117[0][0]         │
│ (BatchNormalization)          │                           │                 │                            │
├───────────────────────────────┼───────────────────────────┼─────────────────┼────────────────────────────┤
│ activation_44117 (Activation) │ (None, 6000, 40)          │               0 │ batch_normalization_44117… │
├───────────────────────────────┼───────────────────────────┼─────────────────┼────────────────────────────┤
│ dropout_39917 (Dropout)       │ (None, 6000, 40)          │               0 │ activation_44117[0][0]     │
├───────────────────────────────┼───────────────────────────┼─────────────────┼────────────────────────────┤
│ reshape_4202 (Reshape)        │ (None, 6000, 1, 40)       │               0 │ dropout_39917[0][0]        │
├───────────────────────────────┼───────────────────────────┼─────────────────┼────────────────────────────┤
│ patches_2101 (Patches)        │ (None, None, 1600)        │               0 │ reshape_4202[0][0]         │
├───────────────────────────────┼───────────────────────────┼─────────────────┼────────────────────────────┤
│ patch_encoder_2101            │ (None, 150, 40)           │          70,040 │ patches_2101[0][0]         │
│ (PatchEncoder)                │                           │                 │                            │
├───────────────────────────────┼───────────────────────────┼─────────────────┼────────────────────────────┤
│ conv1d_44118 (Conv1D)         │ (None, 150, 40)           │          17,640 │ patch_encoder_2101[0][0]   │
├───────────────────────────────┼───────────────────────────┼─────────────────┼────────────────────────────┤
│ batch_normalization_44118     │ (None, 150, 40)           │             160 │ conv1d_44118[0][0]         │
│ (BatchNormalization)          │                           │                 │                            │
├───────────────────────────────┼───────────────────────────┼─────────────────┼────────────────────────────┤
│ activation_44118 (Activation) │ (None, 150, 40)           │               0 │ batch_normalization_44118… │
├───────────────────────────────┼───────────────────────────┼─────────────────┼────────────────────────────┤
│ conv1d_44119 (Conv1D)         │ (None, 150, 40)           │          17,640 │ activation_44118[0][0]     │
├───────────────────────────────┼───────────────────────────┼─────────────────┼────────────────────────────┤
│ batch_normalization_44119     │ (None, 150, 40)           │             160 │ conv1d_44119[0][0]         │
│ (BatchNormalization)          │                           │                 │                            │
├───────────────────────────────┼───────────────────────────┼─────────────────┼────────────────────────────┤
│ activation_44119 (Activation) │ (None, 150, 40)           │               0 │ batch_normalization_44119… │
├───────────────────────────────┼───────────────────────────┼─────────────────┼────────────────────────────┤
│ add_31514 (Add)               │ (None, 150, 40)           │               0 │ activation_44119[0][0],    │
│                               │                           │                 │ patch_encoder_2101[0][0]   │
├───────────────────────────────┼───────────────────────────┼─────────────────┼────────────────────────────┤
│ conv1d_44120 (Conv1D)         │ (None, 150, 40)           │          17,640 │ add_31514[0][0]            │
├───────────────────────────────┼───────────────────────────┼─────────────────┼────────────────────────────┤
│ batch_normalization_44120     │ (None, 150, 40)           │             160 │ conv1d_44120[0][0]         │
│ (BatchNormalization)          │                           │                 │                            │
├───────────────────────────────┼───────────────────────────┼─────────────────┼────────────────────────────┤
│ activation_44120 (Activation) │ (None, 150, 40)           │               0 │ batch_normalization_44120… │
├───────────────────────────────┼───────────────────────────┼─────────────────┼────────────────────────────┤
│ dropout_39918 (Dropout)       │ (None, 150, 40)           │               0 │ activation_44120[0][0]     │
├───────────────────────────────┼───────────────────────────┼─────────────────┼────────────────────────────┤
│ layer_normalization_18909     │ (None, 150, 40)           │              80 │ dropout_39918[0][0]        │
│ (LayerNormalization)          │                           │                 │                            │
├───────────────────────────────┼───────────────────────────┼─────────────────┼────────────────────────────┤
│ multi_head_attention_8404     │ (None, 150, 40)           │          26,120 │ layer_normalization_18909… │
│ (MultiHeadAttention)          │                           │                 │ layer_normalization_18909… │
├───────────────────────────────┼───────────────────────────┼─────────────────┼────────────────────────────┤
│ conv1d_44121 (Conv1D)         │ (None, 150, 40)           │          17,640 │ multi_head_attention_8404… │
├───────────────────────────────┼───────────────────────────┼─────────────────┼────────────────────────────┤
│ batch_normalization_44121     │ (None, 150, 40)           │             160 │ conv1d_44121[0][0]         │
│ (BatchNormalization)          │                           │                 │                            │
├───────────────────────────────┼───────────────────────────┼─────────────────┼────────────────────────────┤
│ activation_44121 (Activation) │ (None, 150, 40)           │               0 │ batch_normalization_44121… │
├───────────────────────────────┼───────────────────────────┼─────────────────┼────────────────────────────┤
│ conv1d_44122 (Conv1D)         │ (None, 150, 40)           │          17,640 │ activation_44121[0][0]     │
├───────────────────────────────┼───────────────────────────┼─────────────────┼────────────────────────────┤
│ batch_normalization_44122     │ (None, 150, 40)           │             160 │ conv1d_44122[0][0]         │
│ (BatchNormalization)          │                           │                 │                            │
├───────────────────────────────┼───────────────────────────┼─────────────────┼────────────────────────────┤
│ activation_44122 (Activation) │ (None, 150, 40)           │               0 │ batch_normalization_44122… │
├───────────────────────────────┼───────────────────────────┼─────────────────┼────────────────────────────┤
│ add_31515 (Add)               │ (None, 150, 40)           │               0 │ activation_44122[0][0],    │
│                               │                           │                 │ multi_head_attention_8404… │
├───────────────────────────────┼───────────────────────────┼─────────────────┼────────────────────────────┤
│ conv1d_44123 (Conv1D)         │ (None, 150, 40)           │          17,640 │ add_31515[0][0]            │
├───────────────────────────────┼───────────────────────────┼─────────────────┼────────────────────────────┤
│ batch_normalization_44123     │ (None, 150, 40)           │             160 │ conv1d_44123[0][0]         │
│ (BatchNormalization)          │                           │                 │                            │
├───────────────────────────────┼───────────────────────────┼─────────────────┼────────────────────────────┤
│ activation_44123 (Activation) │ (None, 150, 40)           │               0 │ batch_normalization_44123… │
├───────────────────────────────┼───────────────────────────┼─────────────────┼────────────────────────────┤
│ dropout_39920 (Dropout)       │ (None, 150, 40)           │               0 │ activation_44123[0][0]     │
├───────────────────────────────┼───────────────────────────┼─────────────────┼────────────────────────────┤
│ stochastic_depth_16808        │ (None, 150, 40)           │               0 │ dropout_39920[0][0]        │
│ (StochasticDepth)             │                           │                 │                            │
├───────────────────────────────┼───────────────────────────┼─────────────────┼────────────────────────────┤
│ add_31516 (Add)               │ (None, 150, 40)           │               0 │ stochastic_depth_16808[0]… │
│                               │                           │                 │ dropout_39918[0][0]        │
├───────────────────────────────┼───────────────────────────┼─────────────────┼────────────────────────────┤
│ layer_normalization_18910     │ (None, 150, 40)           │              80 │ add_31516[0][0]            │
│ (LayerNormalization)          │                           │                 │                            │
├───────────────────────────────┼───────────────────────────┼─────────────────┼────────────────────────────┤
│ dense_18910 (Dense)           │ (None, 150, 40)           │           1,640 │ layer_normalization_18910… │
├───────────────────────────────┼───────────────────────────┼─────────────────┼────────────────────────────┤
│ dropout_39921 (Dropout)       │ (None, 150, 40)           │               0 │ dense_18910[0][0]          │
├───────────────────────────────┼───────────────────────────┼─────────────────┼────────────────────────────┤
│ dense_18911 (Dense)           │ (None, 150, 40)           │           1,640 │ dropout_39921[0][0]        │
├───────────────────────────────┼───────────────────────────┼─────────────────┼────────────────────────────┤
│ dropout_39922 (Dropout)       │ (None, 150, 40)           │               0 │ dense_18911[0][0]          │
├───────────────────────────────┼───────────────────────────┼─────────────────┼────────────────────────────┤
│ stochastic_depth_16809        │ (None, 150, 40)           │               0 │ dropout_39922[0][0]        │
│ (StochasticDepth)             │                           │                 │                            │
├───────────────────────────────┼───────────────────────────┼─────────────────┼────────────────────────────┤
│ add_31517 (Add)               │ (None, 150, 40)           │               0 │ stochastic_depth_16809[0]… │
│                               │                           │                 │ add_31516[0][0]            │
├───────────────────────────────┼───────────────────────────┼─────────────────┼────────────────────────────┤
│ conv1d_44124 (Conv1D)         │ (None, 150, 40)           │          17,640 │ add_31517[0][0]            │
├───────────────────────────────┼───────────────────────────┼─────────────────┼────────────────────────────┤
│ batch_normalization_44124     │ (None, 150, 40)           │             160 │ conv1d_44124[0][0]         │
│ (BatchNormalization)          │                           │                 │                            │
├───────────────────────────────┼───────────────────────────┼─────────────────┼────────────────────────────┤
│ activation_44124 (Activation) │ (None, 150, 40)           │               0 │ batch_normalization_44124… │
├───────────────────────────────┼───────────────────────────┼─────────────────┼────────────────────────────┤
│ conv1d_44125 (Conv1D)         │ (None, 150, 40)           │          17,640 │ activation_44124[0][0]     │
├───────────────────────────────┼───────────────────────────┼─────────────────┼────────────────────────────┤
│ batch_normalization_44125     │ (None, 150, 40)           │             160 │ conv1d_44125[0][0]         │
│ (BatchNormalization)          │                           │                 │                            │
├───────────────────────────────┼───────────────────────────┼─────────────────┼────────────────────────────┤
│ activation_44125 (Activation) │ (None, 150, 40)           │               0 │ batch_normalization_44125… │
├───────────────────────────────┼───────────────────────────┼─────────────────┼────────────────────────────┤
│ add_31518 (Add)               │ (None, 150, 40)           │               0 │ activation_44125[0][0],    │
│                               │                           │                 │ add_31517[0][0]            │
├───────────────────────────────┼───────────────────────────┼─────────────────┼────────────────────────────┤
│ conv1d_44126 (Conv1D)         │ (None, 150, 40)           │          17,640 │ add_31518[0][0]            │
├───────────────────────────────┼───────────────────────────┼─────────────────┼────────────────────────────┤
│ batch_normalization_44126     │ (None, 150, 40)           │             160 │ conv1d_44126[0][0]         │
│ (BatchNormalization)          │                           │                 │                            │
├───────────────────────────────┼───────────────────────────┼─────────────────┼────────────────────────────┤
│ activation_44126 (Activation) │ (None, 150, 40)           │               0 │ batch_normalization_44126… │
├───────────────────────────────┼───────────────────────────┼─────────────────┼────────────────────────────┤
│ dropout_39923 (Dropout)       │ (None, 150, 40)           │               0 │ activation_44126[0][0]     │
├───────────────────────────────┼───────────────────────────┼─────────────────┼────────────────────────────┤
│ layer_normalization_18911     │ (None, 150, 40)           │              80 │ dropout_39923[0][0]        │
│ (LayerNormalization)          │                           │                 │                            │
├───────────────────────────────┼───────────────────────────┼─────────────────┼────────────────────────────┤
│ multi_head_attention_8405     │ (None, 150, 40)           │          26,120 │ layer_normalization_18911… │
│ (MultiHeadAttention)          │                           │                 │ layer_normalization_18911… │
├───────────────────────────────┼───────────────────────────┼─────────────────┼────────────────────────────┤
│ conv1d_44127 (Conv1D)         │ (None, 150, 40)           │          17,640 │ multi_head_attention_8405… │
├───────────────────────────────┼───────────────────────────┼─────────────────┼────────────────────────────┤
│ batch_normalization_44127     │ (None, 150, 40)           │             160 │ conv1d_44127[0][0]         │
│ (BatchNormalization)          │                           │                 │                            │
├───────────────────────────────┼───────────────────────────┼─────────────────┼────────────────────────────┤
│ activation_44127 (Activation) │ (None, 150, 40)           │               0 │ batch_normalization_44127… │
├───────────────────────────────┼───────────────────────────┼─────────────────┼────────────────────────────┤
│ conv1d_44128 (Conv1D)         │ (None, 150, 40)           │          17,640 │ activation_44127[0][0]     │
├───────────────────────────────┼───────────────────────────┼─────────────────┼────────────────────────────┤
│ batch_normalization_44128     │ (None, 150, 40)           │             160 │ conv1d_44128[0][0]         │
│ (BatchNormalization)          │                           │                 │                            │
├───────────────────────────────┼───────────────────────────┼─────────────────┼────────────────────────────┤
│ activation_44128 (Activation) │ (None, 150, 40)           │               0 │ batch_normalization_44128… │
├───────────────────────────────┼───────────────────────────┼─────────────────┼────────────────────────────┤
│ conv1d_44100 (Conv1D)         │ (None, 6000, 3)           │             102 │ input[0][0]                │
├───────────────────────────────┼───────────────────────────┼─────────────────┼────────────────────────────┤
│ add_31519 (Add)               │ (None, 150, 40)           │               0 │ activation_44128[0][0],    │
│                               │                           │                 │ multi_head_attention_8405… │
├───────────────────────────────┼───────────────────────────┼─────────────────┼────────────────────────────┤
│ batch_normalization_44100     │ (None, 6000, 3)           │              12 │ conv1d_44100[0][0]         │
│ (BatchNormalization)          │                           │                 │                            │
├───────────────────────────────┼───────────────────────────┼─────────────────┼────────────────────────────┤
│ conv1d_44129 (Conv1D)         │ (None, 150, 40)           │          17,640 │ add_31519[0][0]            │
├───────────────────────────────┼───────────────────────────┼─────────────────┼────────────────────────────┤
│ activation_44100 (Activation) │ (None, 6000, 3)           │               0 │ batch_normalization_44100… │
├───────────────────────────────┼───────────────────────────┼─────────────────┼────────────────────────────┤
│ batch_normalization_44129     │ (None, 150, 40)           │             160 │ conv1d_44129[0][0]         │
│ (BatchNormalization)          │                           │                 │                            │
├───────────────────────────────┼───────────────────────────┼─────────────────┼────────────────────────────┤
│ conv1d_44101 (Conv1D)         │ (None, 6000, 3)           │             102 │ activation_44100[0][0]     │
├───────────────────────────────┼───────────────────────────┼─────────────────┼────────────────────────────┤
│ activation_44129 (Activation) │ (None, 150, 40)           │               0 │ batch_normalization_44129… │
├───────────────────────────────┼───────────────────────────┼─────────────────┼────────────────────────────┤
│ batch_normalization_44101     │ (None, 6000, 3)           │              12 │ conv1d_44101[0][0]         │
│ (BatchNormalization)          │                           │                 │                            │
├───────────────────────────────┼───────────────────────────┼─────────────────┼────────────────────────────┤
│ dropout_39925 (Dropout)       │ (None, 150, 40)           │               0 │ activation_44129[0][0]     │
├───────────────────────────────┼───────────────────────────┼─────────────────┼────────────────────────────┤
│ activation_44101 (Activation) │ (None, 6000, 3)           │               0 │ batch_normalization_44101… │
├───────────────────────────────┼───────────────────────────┼─────────────────┼────────────────────────────┤
│ stochastic_depth_16810        │ (None, 150, 40)           │               0 │ dropout_39925[0][0]        │
│ (StochasticDepth)             │                           │                 │                            │
├───────────────────────────────┼───────────────────────────┼─────────────────┼────────────────────────────┤
│ add_31500 (Add)               │ (None, 6000, 3)           │               0 │ activation_44101[0][0],    │
│                               │                           │                 │ input[0][0]                │
├───────────────────────────────┼───────────────────────────┼─────────────────┼────────────────────────────┤
│ add_31520 (Add)               │ (None, 150, 40)           │               0 │ stochastic_depth_16810[0]… │
│                               │                           │                 │ dropout_39923[0][0]        │
├───────────────────────────────┼───────────────────────────┼─────────────────┼────────────────────────────┤
│ conv1d_44102 (Conv1D)         │ (None, 6000, 10)          │             340 │ add_31500[0][0]            │
├───────────────────────────────┼───────────────────────────┼─────────────────┼────────────────────────────┤
│ layer_normalization_18912     │ (None, 150, 40)           │              80 │ add_31520[0][0]            │
│ (LayerNormalization)          │                           │                 │                            │
├───────────────────────────────┼───────────────────────────┼─────────────────┼────────────────────────────┤
│ batch_normalization_44102     │ (None, 6000, 10)          │              40 │ conv1d_44102[0][0]         │
│ (BatchNormalization)          │                           │                 │                            │
├───────────────────────────────┼───────────────────────────┼─────────────────┼────────────────────────────┤
│ dense_18912 (Dense)           │ (None, 150, 40)           │           1,640 │ layer_normalization_18912… │
├───────────────────────────────┼───────────────────────────┼─────────────────┼────────────────────────────┤
│ activation_44102 (Activation) │ (None, 6000, 10)          │               0 │ batch_normalization_44102… │
├───────────────────────────────┼───────────────────────────┼─────────────────┼────────────────────────────┤
│ dropout_39926 (Dropout)       │ (None, 150, 40)           │               0 │ dense_18912[0][0]          │
├───────────────────────────────┼───────────────────────────┼─────────────────┼────────────────────────────┤
│ dropout_39900 (Dropout)       │ (None, 6000, 10)          │               0 │ activation_44102[0][0]     │
├───────────────────────────────┼───────────────────────────┼─────────────────┼────────────────────────────┤
│ dense_18913 (Dense)           │ (None, 150, 40)           │           1,640 │ dropout_39926[0][0]        │
├───────────────────────────────┼───────────────────────────┼─────────────────┼────────────────────────────┤
│ conv1d_44103 (Conv1D)         │ (None, 6000, 10)          │           1,110 │ dropout_39900[0][0]        │
├───────────────────────────────┼───────────────────────────┼─────────────────┼────────────────────────────┤
│ dropout_39927 (Dropout)       │ (None, 150, 40)           │               0 │ dense_18913[0][0]          │
├───────────────────────────────┼───────────────────────────┼─────────────────┼────────────────────────────┤
│ batch_normalization_44103     │ (None, 6000, 10)          │              40 │ conv1d_44103[0][0]         │
│ (BatchNormalization)          │                           │                 │                            │
├───────────────────────────────┼───────────────────────────┼─────────────────┼────────────────────────────┤
│ stochastic_depth_16811        │ (None, 150, 40)           │               0 │ dropout_39927[0][0]        │
│ (StochasticDepth)             │                           │                 │                            │
├───────────────────────────────┼───────────────────────────┼─────────────────┼────────────────────────────┤
│ activation_44103 (Activation) │ (None, 6000, 10)          │               0 │ batch_normalization_44103… │
├───────────────────────────────┼───────────────────────────┼─────────────────┼────────────────────────────┤
│ add_31521 (Add)               │ (None, 150, 40)           │               0 │ stochastic_depth_16811[0]… │
│                               │                           │                 │ add_31520[0][0]            │
├───────────────────────────────┼───────────────────────────┼─────────────────┼────────────────────────────┤
│ conv1d_44104 (Conv1D)         │ (None, 6000, 10)          │           1,110 │ activation_44103[0][0]     │
├───────────────────────────────┼───────────────────────────┼─────────────────┼────────────────────────────┤
│ conv1d_44130 (Conv1D)         │ (None, 150, 40)           │          17,640 │ add_31521[0][0]            │
├───────────────────────────────┼───────────────────────────┼─────────────────┼────────────────────────────┤
│ batch_normalization_44104     │ (None, 6000, 10)          │              40 │ conv1d_44104[0][0]         │
│ (BatchNormalization)          │                           │                 │                            │
├───────────────────────────────┼───────────────────────────┼─────────────────┼────────────────────────────┤
│ batch_normalization_44130     │ (None, 150, 40)           │             160 │ conv1d_44130[0][0]         │
│ (BatchNormalization)          │                           │                 │                            │
├───────────────────────────────┼───────────────────────────┼─────────────────┼────────────────────────────┤
│ activation_44104 (Activation) │ (None, 6000, 10)          │               0 │ batch_normalization_44104… │
├───────────────────────────────┼───────────────────────────┼─────────────────┼────────────────────────────┤
│ activation_44130 (Activation) │ (None, 150, 40)           │               0 │ batch_normalization_44130… │
├───────────────────────────────┼───────────────────────────┼─────────────────┼────────────────────────────┤
│ add_31501 (Add)               │ (None, 6000, 10)          │               0 │ activation_44104[0][0],    │
│                               │                           │                 │ dropout_39900[0][0]        │
├───────────────────────────────┼───────────────────────────┼─────────────────┼────────────────────────────┤
│ conv1d_44131 (Conv1D)         │ (None, 150, 40)           │          17,640 │ activation_44130[0][0]     │
├───────────────────────────────┼───────────────────────────┼─────────────────┼────────────────────────────┤
│ conv1d_44105 (Conv1D)         │ (None, 6000, 20)          │           2,220 │ add_31501[0][0]            │
├───────────────────────────────┼───────────────────────────┼─────────────────┼────────────────────────────┤
│ batch_normalization_44131     │ (None, 150, 40)           │             160 │ conv1d_44131[0][0]         │
│ (BatchNormalization)          │                           │                 │                            │
├───────────────────────────────┼───────────────────────────┼─────────────────┼────────────────────────────┤
│ batch_normalization_44105     │ (None, 6000, 20)          │              80 │ conv1d_44105[0][0]         │
│ (BatchNormalization)          │                           │                 │                            │
├───────────────────────────────┼───────────────────────────┼─────────────────┼────────────────────────────┤
│ activation_44131 (Activation) │ (None, 150, 40)           │               0 │ batch_normalization_44131… │
├───────────────────────────────┼───────────────────────────┼─────────────────┼────────────────────────────┤
│ activation_44105 (Activation) │ (None, 6000, 20)          │               0 │ batch_normalization_44105… │
├───────────────────────────────┼───────────────────────────┼─────────────────┼────────────────────────────┤
│ add_31522 (Add)               │ (None, 150, 40)           │               0 │ activation_44131[0][0],    │
│                               │                           │                 │ add_31521[0][0]            │
├───────────────────────────────┼───────────────────────────┼─────────────────┼────────────────────────────┤
│ dropout_39901 (Dropout)       │ (None, 6000, 20)          │               0 │ activation_44105[0][0]     │
├───────────────────────────────┼───────────────────────────┼─────────────────┼────────────────────────────┤
│ conv1d_44132 (Conv1D)         │ (None, 150, 40)           │          17,640 │ add_31522[0][0]            │
├───────────────────────────────┼───────────────────────────┼─────────────────┼────────────────────────────┤
│ conv1d_44106 (Conv1D)         │ (None, 6000, 20)          │           4,420 │ dropout_39901[0][0]        │
├───────────────────────────────┼───────────────────────────┼─────────────────┼────────────────────────────┤
│ batch_normalization_44132     │ (None, 150, 40)           │             160 │ conv1d_44132[0][0]         │
│ (BatchNormalization)          │                           │                 │                            │
├───────────────────────────────┼───────────────────────────┼─────────────────┼────────────────────────────┤
│ batch_normalization_44106     │ (None, 6000, 20)          │              80 │ conv1d_44106[0][0]         │
│ (BatchNormalization)          │                           │                 │                            │
├───────────────────────────────┼───────────────────────────┼─────────────────┼────────────────────────────┤
│ activation_44132 (Activation) │ (None, 150, 40)           │               0 │ batch_normalization_44132… │
├───────────────────────────────┼───────────────────────────┼─────────────────┼────────────────────────────┤
│ activation_44106 (Activation) │ (None, 6000, 20)          │               0 │ batch_normalization_44106… │
├───────────────────────────────┼───────────────────────────┼─────────────────┼────────────────────────────┤
│ dropout_39928 (Dropout)       │ (None, 150, 40)           │               0 │ activation_44132[0][0]     │
├───────────────────────────────┼───────────────────────────┼─────────────────┼────────────────────────────┤
│ conv1d_44107 (Conv1D)         │ (None, 6000, 20)          │           4,420 │ activation_44106[0][0]     │
├───────────────────────────────┼───────────────────────────┼─────────────────┼────────────────────────────┤
│ layer_normalization_18913     │ (None, 150, 40)           │              80 │ dropout_39928[0][0]        │
│ (LayerNormalization)          │                           │                 │                            │
├───────────────────────────────┼───────────────────────────┼─────────────────┼────────────────────────────┤
│ batch_normalization_44107     │ (None, 6000, 20)          │              80 │ conv1d_44107[0][0]         │
│ (BatchNormalization)          │                           │                 │                            │
├───────────────────────────────┼───────────────────────────┼─────────────────┼────────────────────────────┤
│ multi_head_attention_8406     │ (None, 150, 40)           │          26,120 │ layer_normalization_18913… │
│ (MultiHeadAttention)          │                           │                 │ layer_normalization_18913… │
├───────────────────────────────┼───────────────────────────┼─────────────────┼────────────────────────────┤
│ activation_44107 (Activation) │ (None, 6000, 20)          │               0 │ batch_normalization_44107… │
├───────────────────────────────┼───────────────────────────┼─────────────────┼────────────────────────────┤
│ conv1d_44133 (Conv1D)         │ (None, 150, 40)           │          17,640 │ multi_head_attention_8406… │
├───────────────────────────────┼───────────────────────────┼─────────────────┼────────────────────────────┤
│ add_31502 (Add)               │ (None, 6000, 20)          │               0 │ activation_44107[0][0],    │
│                               │                           │                 │ dropout_39901[0][0]        │
├───────────────────────────────┼───────────────────────────┼─────────────────┼────────────────────────────┤
│ batch_normalization_44133     │ (None, 150, 40)           │             160 │ conv1d_44133[0][0]         │
│ (BatchNormalization)          │                           │                 │                            │
├───────────────────────────────┼───────────────────────────┼─────────────────┼────────────────────────────┤
│ conv1d_44108 (Conv1D)         │ (None, 6000, 40)          │           8,840 │ add_31502[0][0]            │
├───────────────────────────────┼───────────────────────────┼─────────────────┼────────────────────────────┤
│ activation_44133 (Activation) │ (None, 150, 40)           │               0 │ batch_normalization_44133… │
├───────────────────────────────┼───────────────────────────┼─────────────────┼────────────────────────────┤
│ batch_normalization_44108     │ (None, 6000, 40)          │             160 │ conv1d_44108[0][0]         │
│ (BatchNormalization)          │                           │                 │                            │
├───────────────────────────────┼───────────────────────────┼─────────────────┼────────────────────────────┤
│ conv1d_44134 (Conv1D)         │ (None, 150, 40)           │          17,640 │ activation_44133[0][0]     │
├───────────────────────────────┼───────────────────────────┼─────────────────┼────────────────────────────┤
│ activation_44108 (Activation) │ (None, 6000, 40)          │               0 │ batch_normalization_44108… │
├───────────────────────────────┼───────────────────────────┼─────────────────┼────────────────────────────┤
│ batch_normalization_44134     │ (None, 150, 40)           │             160 │ conv1d_44134[0][0]         │
│ (BatchNormalization)          │                           │                 │                            │
├───────────────────────────────┼───────────────────────────┼─────────────────┼────────────────────────────┤
│ dropout_39902 (Dropout)       │ (None, 6000, 40)          │               0 │ activation_44108[0][0]     │
├───────────────────────────────┼───────────────────────────┼─────────────────┼────────────────────────────┤
│ activation_44134 (Activation) │ (None, 150, 40)           │               0 │ batch_normalization_44134… │
├───────────────────────────────┼───────────────────────────┼─────────────────┼────────────────────────────┤
│ reshape_4200 (Reshape)        │ (None, 6000, 1, 40)       │               0 │ dropout_39902[0][0]        │
├───────────────────────────────┼───────────────────────────┼─────────────────┼────────────────────────────┤
│ add_31523 (Add)               │ (None, 150, 40)           │               0 │ activation_44134[0][0],    │
│                               │                           │                 │ multi_head_attention_8406… │
├───────────────────────────────┼───────────────────────────┼─────────────────┼────────────────────────────┤
│ patches_2100 (Patches)        │ (None, None, 1600)        │               0 │ reshape_4200[0][0]         │
├───────────────────────────────┼───────────────────────────┼─────────────────┼────────────────────────────┤
│ conv1d_44135 (Conv1D)         │ (None, 150, 40)           │          17,640 │ add_31523[0][0]            │
├───────────────────────────────┼───────────────────────────┼─────────────────┼────────────────────────────┤
│ patch_encoder_2100            │ (None, 150, 40)           │          70,040 │ patches_2100[0][0]         │
│ (PatchEncoder)                │                           │                 │                            │
├───────────────────────────────┼───────────────────────────┼─────────────────┼────────────────────────────┤
│ batch_normalization_44135     │ (None, 150, 40)           │             160 │ conv1d_44135[0][0]         │
│ (BatchNormalization)          │                           │                 │                            │
├───────────────────────────────┼───────────────────────────┼─────────────────┼────────────────────────────┤
│ layer_normalization_18900     │ (None, 150, 40)           │              80 │ patch_encoder_2100[0][0]   │
│ (LayerNormalization)          │                           │                 │                            │
├───────────────────────────────┼───────────────────────────┼─────────────────┼────────────────────────────┤
│ activation_44135 (Activation) │ (None, 150, 40)           │               0 │ batch_normalization_44135… │
├───────────────────────────────┼───────────────────────────┼─────────────────┼────────────────────────────┤
│ multi_head_attention_8400     │ (None, 150, 40)           │          26,120 │ layer_normalization_18900… │
│ (MultiHeadAttention)          │                           │                 │ layer_normalization_18900… │
├───────────────────────────────┼───────────────────────────┼─────────────────┼────────────────────────────┤
│ dropout_39930 (Dropout)       │ (None, 150, 40)           │               0 │ activation_44135[0][0]     │
├───────────────────────────────┼───────────────────────────┼─────────────────┼────────────────────────────┤
│ stochastic_depth_16800        │ (None, 150, 40)           │               0 │ multi_head_attention_8400… │
│ (StochasticDepth)             │                           │                 │                            │
├───────────────────────────────┼───────────────────────────┼─────────────────┼────────────────────────────┤
│ stochastic_depth_16812        │ (None, 150, 40)           │               0 │ dropout_39930[0][0]        │
│ (StochasticDepth)             │                           │                 │                            │
├───────────────────────────────┼───────────────────────────┼─────────────────┼────────────────────────────┤
│ add_31503 (Add)               │ (None, 150, 40)           │               0 │ stochastic_depth_16800[0]… │
│                               │                           │                 │ patch_encoder_2100[0][0]   │
├───────────────────────────────┼───────────────────────────┼─────────────────┼────────────────────────────┤
│ add_31524 (Add)               │ (None, 150, 40)           │               0 │ stochastic_depth_16812[0]… │
│                               │                           │                 │ dropout_39928[0][0]        │
├───────────────────────────────┼───────────────────────────┼─────────────────┼────────────────────────────┤
│ layer_normalization_18901     │ (None, 150, 40)           │              80 │ add_31503[0][0]            │
│ (LayerNormalization)          │                           │                 │                            │
├───────────────────────────────┼───────────────────────────┼─────────────────┼────────────────────────────┤
│ layer_normalization_18914     │ (None, 150, 40)           │              80 │ add_31524[0][0]            │
│ (LayerNormalization)          │                           │                 │                            │
├───────────────────────────────┼───────────────────────────┼─────────────────┼────────────────────────────┤
│ dense_18901 (Dense)           │ (None, 150, 40)           │           1,640 │ layer_normalization_18901… │
├───────────────────────────────┼───────────────────────────┼─────────────────┼────────────────────────────┤
│ dense_18914 (Dense)           │ (None, 150, 40)           │           1,640 │ layer_normalization_18914… │
├───────────────────────────────┼───────────────────────────┼─────────────────┼────────────────────────────┤
│ dropout_39904 (Dropout)       │ (None, 150, 40)           │               0 │ dense_18901[0][0]          │
├───────────────────────────────┼───────────────────────────┼─────────────────┼────────────────────────────┤
│ dropout_39931 (Dropout)       │ (None, 150, 40)           │               0 │ dense_18914[0][0]          │
├───────────────────────────────┼───────────────────────────┼─────────────────┼────────────────────────────┤
│ dense_18902 (Dense)           │ (None, 150, 40)           │           1,640 │ dropout_39904[0][0]        │
├───────────────────────────────┼───────────────────────────┼─────────────────┼────────────────────────────┤
│ dense_18915 (Dense)           │ (None, 150, 40)           │           1,640 │ dropout_39931[0][0]        │
├───────────────────────────────┼───────────────────────────┼─────────────────┼────────────────────────────┤
│ dropout_39905 (Dropout)       │ (None, 150, 40)           │               0 │ dense_18902[0][0]          │
├───────────────────────────────┼───────────────────────────┼─────────────────┼────────────────────────────┤
│ dropout_39932 (Dropout)       │ (None, 150, 40)           │               0 │ dense_18915[0][0]          │
├───────────────────────────────┼───────────────────────────┼─────────────────┼────────────────────────────┤
│ stochastic_depth_16801        │ (None, 150, 40)           │               0 │ dropout_39905[0][0]        │
│ (StochasticDepth)             │                           │                 │                            │
├───────────────────────────────┼───────────────────────────┼─────────────────┼────────────────────────────┤
│ stochastic_depth_16813        │ (None, 150, 40)           │               0 │ dropout_39932[0][0]        │
│ (StochasticDepth)             │                           │                 │                            │
├───────────────────────────────┼───────────────────────────┼─────────────────┼────────────────────────────┤
│ add_31504 (Add)               │ (None, 150, 40)           │               0 │ stochastic_depth_16801[0]… │
│                               │                           │                 │ add_31503[0][0]            │
├───────────────────────────────┼───────────────────────────┼─────────────────┼────────────────────────────┤
│ add_31525 (Add)               │ (None, 150, 40)           │               0 │ stochastic_depth_16813[0]… │
│                               │                           │                 │ add_31524[0][0]            │
├───────────────────────────────┼───────────────────────────┼─────────────────┼────────────────────────────┤
│ layer_normalization_18902     │ (None, 150, 40)           │              80 │ add_31504[0][0]            │
│ (LayerNormalization)          │                           │                 │                            │
├───────────────────────────────┼───────────────────────────┼─────────────────┼────────────────────────────┤
│ conv1d_44136 (Conv1D)         │ (None, 150, 40)           │          17,640 │ add_31525[0][0]            │
├───────────────────────────────┼───────────────────────────┼─────────────────┼────────────────────────────┤
│ multi_head_attention_8401     │ (None, 150, 40)           │          26,120 │ layer_normalization_18902… │
│ (MultiHeadAttention)          │                           │                 │ layer_normalization_18902… │
├───────────────────────────────┼───────────────────────────┼─────────────────┼────────────────────────────┤
│ batch_normalization_44136     │ (None, 150, 40)           │             160 │ conv1d_44136[0][0]         │
│ (BatchNormalization)          │                           │                 │                            │
├───────────────────────────────┼───────────────────────────┼─────────────────┼────────────────────────────┤
│ stochastic_depth_16802        │ (None, 150, 40)           │               0 │ multi_head_attention_8401… │
│ (StochasticDepth)             │                           │                 │                            │
├───────────────────────────────┼───────────────────────────┼─────────────────┼────────────────────────────┤
│ activation_44136 (Activation) │ (None, 150, 40)           │               0 │ batch_normalization_44136… │
├───────────────────────────────┼───────────────────────────┼─────────────────┼────────────────────────────┤
│ add_31505 (Add)               │ (None, 150, 40)           │               0 │ stochastic_depth_16802[0]… │
│                               │                           │                 │ add_31504[0][0]            │
├───────────────────────────────┼───────────────────────────┼─────────────────┼────────────────────────────┤
│ conv1d_44137 (Conv1D)         │ (None, 150, 40)           │          17,640 │ activation_44136[0][0]     │
├───────────────────────────────┼───────────────────────────┼─────────────────┼────────────────────────────┤
│ layer_normalization_18903     │ (None, 150, 40)           │              80 │ add_31505[0][0]            │
│ (LayerNormalization)          │                           │                 │                            │
├───────────────────────────────┼───────────────────────────┼─────────────────┼────────────────────────────┤
│ batch_normalization_44137     │ (None, 150, 40)           │             160 │ conv1d_44137[0][0]         │
│ (BatchNormalization)          │                           │                 │                            │
├───────────────────────────────┼───────────────────────────┼─────────────────┼────────────────────────────┤
│ dense_18903 (Dense)           │ (None, 150, 40)           │           1,640 │ layer_normalization_18903… │
├───────────────────────────────┼───────────────────────────┼─────────────────┼────────────────────────────┤
│ activation_44137 (Activation) │ (None, 150, 40)           │               0 │ batch_normalization_44137… │
├───────────────────────────────┼───────────────────────────┼─────────────────┼────────────────────────────┤
│ dropout_39907 (Dropout)       │ (None, 150, 40)           │               0 │ dense_18903[0][0]          │
├───────────────────────────────┼───────────────────────────┼─────────────────┼────────────────────────────┤
│ add_31526 (Add)               │ (None, 150, 40)           │               0 │ activation_44137[0][0],    │
│                               │                           │                 │ add_31525[0][0]            │
├───────────────────────────────┼───────────────────────────┼─────────────────┼────────────────────────────┤
│ dense_18904 (Dense)           │ (None, 150, 40)           │           1,640 │ dropout_39907[0][0]        │
├───────────────────────────────┼───────────────────────────┼─────────────────┼────────────────────────────┤
│ conv1d_44138 (Conv1D)         │ (None, 150, 40)           │          17,640 │ add_31526[0][0]            │
├───────────────────────────────┼───────────────────────────┼─────────────────┼────────────────────────────┤
│ dropout_39908 (Dropout)       │ (None, 150, 40)           │               0 │ dense_18904[0][0]          │
├───────────────────────────────┼───────────────────────────┼─────────────────┼────────────────────────────┤
│ batch_normalization_44138     │ (None, 150, 40)           │             160 │ conv1d_44138[0][0]         │
│ (BatchNormalization)          │                           │                 │                            │
├───────────────────────────────┼───────────────────────────┼─────────────────┼────────────────────────────┤
│ stochastic_depth_16803        │ (None, 150, 40)           │               0 │ dropout_39908[0][0]        │
│ (StochasticDepth)             │                           │                 │                            │
├───────────────────────────────┼───────────────────────────┼─────────────────┼────────────────────────────┤
│ activation_44138 (Activation) │ (None, 150, 40)           │               0 │ batch_normalization_44138… │
├───────────────────────────────┼───────────────────────────┼─────────────────┼────────────────────────────┤
│ add_31506 (Add)               │ (None, 150, 40)           │               0 │ stochastic_depth_16803[0]… │
│                               │                           │                 │ add_31505[0][0]            │
├───────────────────────────────┼───────────────────────────┼─────────────────┼────────────────────────────┤
│ dropout_39933 (Dropout)       │ (None, 150, 40)           │               0 │ activation_44138[0][0]     │
├───────────────────────────────┼───────────────────────────┼─────────────────┼────────────────────────────┤
│ layer_normalization_18904     │ (None, 150, 40)           │              80 │ add_31506[0][0]            │
│ (LayerNormalization)          │                           │                 │                            │
├───────────────────────────────┼───────────────────────────┼─────────────────┼────────────────────────────┤
│ layer_normalization_18915     │ (None, 150, 40)           │              80 │ dropout_39933[0][0]        │
│ (LayerNormalization)          │                           │                 │                            │
├───────────────────────────────┼───────────────────────────┼─────────────────┼────────────────────────────┤
│ multi_head_attention_8402     │ (None, 150, 40)           │          26,120 │ layer_normalization_18904… │
│ (MultiHeadAttention)          │                           │                 │ layer_normalization_18904… │
├───────────────────────────────┼───────────────────────────┼─────────────────┼────────────────────────────┤
│ multi_head_attention_8407     │ (None, 150, 40)           │          26,120 │ layer_normalization_18915… │
│ (MultiHeadAttention)          │                           │                 │ layer_normalization_18915… │
├───────────────────────────────┼───────────────────────────┼─────────────────┼────────────────────────────┤
│ stochastic_depth_16804        │ (None, 150, 40)           │               0 │ multi_head_attention_8402… │
│ (StochasticDepth)             │                           │                 │                            │
├───────────────────────────────┼───────────────────────────┼─────────────────┼────────────────────────────┤
│ conv1d_44139 (Conv1D)         │ (None, 150, 40)           │          17,640 │ multi_head_attention_8407… │
├───────────────────────────────┼───────────────────────────┼─────────────────┼────────────────────────────┤
│ add_31507 (Add)               │ (None, 150, 40)           │               0 │ stochastic_depth_16804[0]… │
│                               │                           │                 │ add_31506[0][0]            │
├───────────────────────────────┼───────────────────────────┼─────────────────┼────────────────────────────┤
│ batch_normalization_44139     │ (None, 150, 40)           │             160 │ conv1d_44139[0][0]         │
│ (BatchNormalization)          │                           │                 │                            │
├───────────────────────────────┼───────────────────────────┼─────────────────┼────────────────────────────┤
│ layer_normalization_18905     │ (None, 150, 40)           │              80 │ add_31507[0][0]            │
│ (LayerNormalization)          │                           │                 │                            │
├───────────────────────────────┼───────────────────────────┼─────────────────┼────────────────────────────┤
│ activation_44139 (Activation) │ (None, 150, 40)           │               0 │ batch_normalization_44139… │
├───────────────────────────────┼───────────────────────────┼─────────────────┼────────────────────────────┤
│ dense_18905 (Dense)           │ (None, 150, 40)           │           1,640 │ layer_normalization_18905… │
├───────────────────────────────┼───────────────────────────┼─────────────────┼────────────────────────────┤
│ conv1d_44140 (Conv1D)         │ (None, 150, 40)           │          17,640 │ activation_44139[0][0]     │
├───────────────────────────────┼───────────────────────────┼─────────────────┼────────────────────────────┤
│ dropout_39910 (Dropout)       │ (None, 150, 40)           │               0 │ dense_18905[0][0]          │
├───────────────────────────────┼───────────────────────────┼─────────────────┼────────────────────────────┤
│ batch_normalization_44140     │ (None, 150, 40)           │             160 │ conv1d_44140[0][0]         │
│ (BatchNormalization)          │                           │                 │                            │
├───────────────────────────────┼───────────────────────────┼─────────────────┼────────────────────────────┤
│ dense_18906 (Dense)           │ (None, 150, 40)           │           1,640 │ dropout_39910[0][0]        │
├───────────────────────────────┼───────────────────────────┼─────────────────┼────────────────────────────┤
│ activation_44140 (Activation) │ (None, 150, 40)           │               0 │ batch_normalization_44140… │
├───────────────────────────────┼───────────────────────────┼─────────────────┼────────────────────────────┤
│ dropout_39911 (Dropout)       │ (None, 150, 40)           │               0 │ dense_18906[0][0]          │
├───────────────────────────────┼───────────────────────────┼─────────────────┼────────────────────────────┤
│ add_31527 (Add)               │ (None, 150, 40)           │               0 │ activation_44140[0][0],    │
│                               │                           │                 │ multi_head_attention_8407… │
├───────────────────────────────┼───────────────────────────┼─────────────────┼────────────────────────────┤
│ stochastic_depth_16805        │ (None, 150, 40)           │               0 │ dropout_39911[0][0]        │
│ (StochasticDepth)             │                           │                 │                            │
├───────────────────────────────┼───────────────────────────┼─────────────────┼────────────────────────────┤
│ conv1d_44141 (Conv1D)         │ (None, 150, 40)           │          17,640 │ add_31527[0][0]            │
├───────────────────────────────┼───────────────────────────┼─────────────────┼────────────────────────────┤
│ add_31508 (Add)               │ (None, 150, 40)           │               0 │ stochastic_depth_16805[0]… │
│                               │                           │                 │ add_31507[0][0]            │
├───────────────────────────────┼───────────────────────────┼─────────────────┼────────────────────────────┤
│ batch_normalization_44141     │ (None, 150, 40)           │             160 │ conv1d_44141[0][0]         │
│ (BatchNormalization)          │                           │                 │                            │
├───────────────────────────────┼───────────────────────────┼─────────────────┼────────────────────────────┤
│ layer_normalization_18906     │ (None, 150, 40)           │              80 │ add_31508[0][0]            │
│ (LayerNormalization)          │                           │                 │                            │
├───────────────────────────────┼───────────────────────────┼─────────────────┼────────────────────────────┤
│ activation_44141 (Activation) │ (None, 150, 40)           │               0 │ batch_normalization_44141… │
├───────────────────────────────┼───────────────────────────┼─────────────────┼────────────────────────────┤
│ multi_head_attention_8403     │ (None, 150, 40)           │          26,120 │ layer_normalization_18906… │
│ (MultiHeadAttention)          │                           │                 │ layer_normalization_18906… │
├───────────────────────────────┼───────────────────────────┼─────────────────┼────────────────────────────┤
│ dropout_39935 (Dropout)       │ (None, 150, 40)           │               0 │ activation_44141[0][0]     │
├───────────────────────────────┼───────────────────────────┼─────────────────┼────────────────────────────┤
│ stochastic_depth_16806        │ (None, 150, 40)           │               0 │ multi_head_attention_8403… │
│ (StochasticDepth)             │                           │                 │                            │
├───────────────────────────────┼───────────────────────────┼─────────────────┼────────────────────────────┤
│ stochastic_depth_16814        │ (None, 150, 40)           │               0 │ dropout_39935[0][0]        │
│ (StochasticDepth)             │                           │                 │                            │
├───────────────────────────────┼───────────────────────────┼─────────────────┼────────────────────────────┤
│ add_31509 (Add)               │ (None, 150, 40)           │               0 │ stochastic_depth_16806[0]… │
│                               │                           │                 │ add_31508[0][0]            │
├───────────────────────────────┼───────────────────────────┼─────────────────┼────────────────────────────┤
│ add_31528 (Add)               │ (None, 150, 40)           │               0 │ stochastic_depth_16814[0]… │
│                               │                           │                 │ dropout_39933[0][0]        │
├───────────────────────────────┼───────────────────────────┼─────────────────┼────────────────────────────┤
│ layer_normalization_18907     │ (None, 150, 40)           │              80 │ add_31509[0][0]            │
│ (LayerNormalization)          │                           │                 │                            │
├───────────────────────────────┼───────────────────────────┼─────────────────┼────────────────────────────┤
│ layer_normalization_18916     │ (None, 150, 40)           │              80 │ add_31528[0][0]            │
│ (LayerNormalization)          │                           │                 │                            │
├───────────────────────────────┼───────────────────────────┼─────────────────┼────────────────────────────┤
│ dense_18907 (Dense)           │ (None, 150, 40)           │           1,640 │ layer_normalization_18907… │
├───────────────────────────────┼───────────────────────────┼─────────────────┼────────────────────────────┤
│ dense_18916 (Dense)           │ (None, 150, 40)           │           1,640 │ layer_normalization_18916… │
├───────────────────────────────┼───────────────────────────┼─────────────────┼────────────────────────────┤
│ dropout_39913 (Dropout)       │ (None, 150, 40)           │               0 │ dense_18907[0][0]          │
├───────────────────────────────┼───────────────────────────┼─────────────────┼────────────────────────────┤
│ dropout_39936 (Dropout)       │ (None, 150, 40)           │               0 │ dense_18916[0][0]          │
├───────────────────────────────┼───────────────────────────┼─────────────────┼────────────────────────────┤
│ dense_18908 (Dense)           │ (None, 150, 40)           │           1,640 │ dropout_39913[0][0]        │
├───────────────────────────────┼───────────────────────────┼─────────────────┼────────────────────────────┤
│ dense_18917 (Dense)           │ (None, 150, 40)           │           1,640 │ dropout_39936[0][0]        │
├───────────────────────────────┼───────────────────────────┼─────────────────┼────────────────────────────┤
│ dropout_39914 (Dropout)       │ (None, 150, 40)           │               0 │ dense_18908[0][0]          │
├───────────────────────────────┼───────────────────────────┼─────────────────┼────────────────────────────┤
│ dropout_39937 (Dropout)       │ (None, 150, 40)           │               0 │ dense_18917[0][0]          │
├───────────────────────────────┼───────────────────────────┼─────────────────┼────────────────────────────┤
│ stochastic_depth_16807        │ (None, 150, 40)           │               0 │ dropout_39914[0][0]        │
│ (StochasticDepth)             │                           │                 │                            │
├───────────────────────────────┼───────────────────────────┼─────────────────┼────────────────────────────┤
│ stochastic_depth_16815        │ (None, 150, 40)           │               0 │ dropout_39937[0][0]        │
│ (StochasticDepth)             │                           │                 │                            │
├───────────────────────────────┼───────────────────────────┼─────────────────┼────────────────────────────┤
│ add_31510 (Add)               │ (None, 150, 40)           │               0 │ stochastic_depth_16807[0]… │
│                               │                           │                 │ add_31509[0][0]            │
├───────────────────────────────┼───────────────────────────┼─────────────────┼────────────────────────────┤
│ add_31529 (Add)               │ (None, 150, 40)           │               0 │ stochastic_depth_16815[0]… │
│                               │                           │                 │ add_31528[0][0]            │
├───────────────────────────────┼───────────────────────────┼─────────────────┼────────────────────────────┤
│ layer_normalization_18908     │ (None, 150, 40)           │              80 │ add_31510[0][0]            │
│ (LayerNormalization)          │                           │                 │                            │
├───────────────────────────────┼───────────────────────────┼─────────────────┼────────────────────────────┤
│ layer_normalization_18917     │ (None, 150, 40)           │              80 │ add_31529[0][0]            │
│ (LayerNormalization)          │                           │                 │                            │
├───────────────────────────────┼───────────────────────────┼─────────────────┼────────────────────────────┤
│ reshape_4201 (Reshape)        │ (None, 6000, 1)           │               0 │ layer_normalization_18908… │
├───────────────────────────────┼───────────────────────────┼─────────────────┼────────────────────────────┤
│ reshape_4203 (Reshape)        │ (None, 6000, 1)           │               0 │ layer_normalization_18917… │
├───────────────────────────────┼───────────────────────────┼─────────────────┼────────────────────────────┤
│ picker_P (Conv1D)             │ (None, 6000, 1)           │              16 │ reshape_4201[0][0]         │
├───────────────────────────────┼───────────────────────────┼─────────────────┼────────────────────────────┤
│ picker_S (Conv1D)             │ (None, 6000, 1)           │              16 │ reshape_4203[0][0]         │
└───────────────────────────────┴───────────────────────────┴─────────────────┴────────────────────────────┘
 Total params: 850,368 (3.24 MB)
 Trainable params: 847,904 (3.23 MB)
 Non-trainable params: 2,464 (9.62 KB)

*** Loading is complete!