*** Loading the model ...Model: "functional_1220"
┏━━━━━━━━━━━━━━━━━━━━━━━━━━━━━━━┳━━━━━━━━━━━━━━━━━━━━━━━━━━━┳━━━━━━━━━━━━━━━━━┳━━━━━━━━━━━━━━━━━━━━━━━━━━━━┓
┃ Layer (type)                  ┃ Output Shape              ┃         Param # ┃ Connected to               ┃
┡━━━━━━━━━━━━━━━━━━━━━━━━━━━━━━━╇━━━━━━━━━━━━━━━━━━━━━━━━━━━╇━━━━━━━━━━━━━━━━━╇━━━━━━━━━━━━━━━━━━━━━━━━━━━━┩
│ input (InputLayer)            │ (None, 6000, 3)           │               0 │ -                          │
├───────────────────────────────┼───────────────────────────┼─────────────────┼────────────────────────────┤
│ conv1d_17061 (Conv1D)         │ (None, 6000, 3)           │             102 │ input[0][0]                │
├───────────────────────────────┼───────────────────────────┼─────────────────┼────────────────────────────┤
│ batch_normalization_17061     │ (None, 6000, 3)           │              12 │ conv1d_17061[0][0]         │
│ (BatchNormalization)          │                           │                 │                            │
├───────────────────────────────┼───────────────────────────┼─────────────────┼────────────────────────────┤
│ activation_17061 (Activation) │ (None, 6000, 3)           │               0 │ batch_normalization_17061… │
├───────────────────────────────┼───────────────────────────┼─────────────────┼────────────────────────────┤
│ conv1d_17062 (Conv1D)         │ (None, 6000, 3)           │             102 │ activation_17061[0][0]     │
├───────────────────────────────┼───────────────────────────┼─────────────────┼────────────────────────────┤
│ batch_normalization_17062     │ (None, 6000, 3)           │              12 │ conv1d_17062[0][0]         │
│ (BatchNormalization)          │                           │                 │                            │
├───────────────────────────────┼───────────────────────────┼─────────────────┼────────────────────────────┤
│ activation_17062 (Activation) │ (None, 6000, 3)           │               0 │ batch_normalization_17062… │
├───────────────────────────────┼───────────────────────────┼─────────────────┼────────────────────────────┤
│ add_12191 (Add)               │ (None, 6000, 3)           │               0 │ activation_17062[0][0],    │
│                               │                           │                 │ input[0][0]                │
├───────────────────────────────┼───────────────────────────┼─────────────────┼────────────────────────────┤
│ conv1d_17063 (Conv1D)         │ (None, 6000, 10)          │             340 │ add_12191[0][0]            │
├───────────────────────────────┼───────────────────────────┼─────────────────┼────────────────────────────┤
│ batch_normalization_17063     │ (None, 6000, 10)          │              40 │ conv1d_17063[0][0]         │
│ (BatchNormalization)          │                           │                 │                            │
├───────────────────────────────┼───────────────────────────┼─────────────────┼────────────────────────────┤
│ activation_17063 (Activation) │ (None, 6000, 10)          │               0 │ batch_normalization_17063… │
├───────────────────────────────┼───────────────────────────┼─────────────────┼────────────────────────────┤
│ dropout_15443 (Dropout)       │ (None, 6000, 10)          │               0 │ activation_17063[0][0]     │
├───────────────────────────────┼───────────────────────────┼─────────────────┼────────────────────────────┤
│ conv1d_17064 (Conv1D)         │ (None, 6000, 10)          │           1,110 │ dropout_15443[0][0]        │
├───────────────────────────────┼───────────────────────────┼─────────────────┼────────────────────────────┤
│ batch_normalization_17064     │ (None, 6000, 10)          │              40 │ conv1d_17064[0][0]         │
│ (BatchNormalization)          │                           │                 │                            │
├───────────────────────────────┼───────────────────────────┼─────────────────┼────────────────────────────┤
│ activation_17064 (Activation) │ (None, 6000, 10)          │               0 │ batch_normalization_17064… │
├───────────────────────────────┼───────────────────────────┼─────────────────┼────────────────────────────┤
│ conv1d_17065 (Conv1D)         │ (None, 6000, 10)          │           1,110 │ activation_17064[0][0]     │
├───────────────────────────────┼───────────────────────────┼─────────────────┼────────────────────────────┤
│ batch_normalization_17065     │ (None, 6000, 10)          │              40 │ conv1d_17065[0][0]         │
│ (BatchNormalization)          │                           │                 │                            │
├───────────────────────────────┼───────────────────────────┼─────────────────┼────────────────────────────┤
│ activation_17065 (Activation) │ (None, 6000, 10)          │               0 │ batch_normalization_17065… │
├───────────────────────────────┼───────────────────────────┼─────────────────┼────────────────────────────┤
│ add_12192 (Add)               │ (None, 6000, 10)          │               0 │ activation_17065[0][0],    │
│                               │                           │                 │ dropout_15443[0][0]        │
├───────────────────────────────┼───────────────────────────┼─────────────────┼────────────────────────────┤
│ conv1d_17066 (Conv1D)         │ (None, 6000, 20)          │           2,220 │ add_12192[0][0]            │
├───────────────────────────────┼───────────────────────────┼─────────────────┼────────────────────────────┤
│ batch_normalization_17066     │ (None, 6000, 20)          │              80 │ conv1d_17066[0][0]         │
│ (BatchNormalization)          │                           │                 │                            │
├───────────────────────────────┼───────────────────────────┼─────────────────┼────────────────────────────┤
│ activation_17066 (Activation) │ (None, 6000, 20)          │               0 │ batch_normalization_17066… │
├───────────────────────────────┼───────────────────────────┼─────────────────┼────────────────────────────┤
│ dropout_15444 (Dropout)       │ (None, 6000, 20)          │               0 │ activation_17066[0][0]     │
├───────────────────────────────┼───────────────────────────┼─────────────────┼────────────────────────────┤
│ conv1d_17067 (Conv1D)         │ (None, 6000, 20)          │           4,420 │ dropout_15444[0][0]        │
├───────────────────────────────┼───────────────────────────┼─────────────────┼────────────────────────────┤
│ batch_normalization_17067     │ (None, 6000, 20)          │              80 │ conv1d_17067[0][0]         │
│ (BatchNormalization)          │                           │                 │                            │
├───────────────────────────────┼───────────────────────────┼─────────────────┼────────────────────────────┤
│ activation_17067 (Activation) │ (None, 6000, 20)          │               0 │ batch_normalization_17067… │
├───────────────────────────────┼───────────────────────────┼─────────────────┼────────────────────────────┤
│ conv1d_17068 (Conv1D)         │ (None, 6000, 20)          │           4,420 │ activation_17067[0][0]     │
├───────────────────────────────┼───────────────────────────┼─────────────────┼────────────────────────────┤
│ batch_normalization_17068     │ (None, 6000, 20)          │              80 │ conv1d_17068[0][0]         │
│ (BatchNormalization)          │                           │                 │                            │
├───────────────────────────────┼───────────────────────────┼─────────────────┼────────────────────────────┤
│ activation_17068 (Activation) │ (None, 6000, 20)          │               0 │ batch_normalization_17068… │
├───────────────────────────────┼───────────────────────────┼─────────────────┼────────────────────────────┤
│ add_12193 (Add)               │ (None, 6000, 20)          │               0 │ activation_17068[0][0],    │
│                               │                           │                 │ dropout_15444[0][0]        │
├───────────────────────────────┼───────────────────────────┼─────────────────┼────────────────────────────┤
│ conv1d_17069 (Conv1D)         │ (None, 6000, 40)          │           8,840 │ add_12193[0][0]            │
├───────────────────────────────┼───────────────────────────┼─────────────────┼────────────────────────────┤
│ batch_normalization_17069     │ (None, 6000, 40)          │             160 │ conv1d_17069[0][0]         │
│ (BatchNormalization)          │                           │                 │                            │
├───────────────────────────────┼───────────────────────────┼─────────────────┼────────────────────────────┤
│ activation_17069 (Activation) │ (None, 6000, 40)          │               0 │ batch_normalization_17069… │
├───────────────────────────────┼───────────────────────────┼─────────────────┼────────────────────────────┤
│ dropout_15445 (Dropout)       │ (None, 6000, 40)          │               0 │ activation_17069[0][0]     │
├───────────────────────────────┼───────────────────────────┼─────────────────┼────────────────────────────┤
│ reshape_1626 (Reshape)        │ (None, 6000, 1, 40)       │               0 │ dropout_15445[0][0]        │
├───────────────────────────────┼───────────────────────────┼─────────────────┼────────────────────────────┤
│ patches_813 (Patches)         │ (None, None, 1600)        │               0 │ reshape_1626[0][0]         │
├───────────────────────────────┼───────────────────────────┼─────────────────┼────────────────────────────┤
│ patch_encoder_813             │ (None, 150, 40)           │          70,040 │ patches_813[0][0]          │
│ (PatchEncoder)                │                           │                 │                            │
├───────────────────────────────┼───────────────────────────┼─────────────────┼────────────────────────────┤
│ conv1d_17070 (Conv1D)         │ (None, 150, 40)           │          17,640 │ patch_encoder_813[0][0]    │
├───────────────────────────────┼───────────────────────────┼─────────────────┼────────────────────────────┤
│ batch_normalization_17070     │ (None, 150, 40)           │             160 │ conv1d_17070[0][0]         │
│ (BatchNormalization)          │                           │                 │                            │
├───────────────────────────────┼───────────────────────────┼─────────────────┼────────────────────────────┤
│ activation_17070 (Activation) │ (None, 150, 40)           │               0 │ batch_normalization_17070… │
├───────────────────────────────┼───────────────────────────┼─────────────────┼────────────────────────────┤
│ conv1d_17071 (Conv1D)         │ (None, 150, 40)           │          17,640 │ activation_17070[0][0]     │
├───────────────────────────────┼───────────────────────────┼─────────────────┼────────────────────────────┤
│ batch_normalization_17071     │ (None, 150, 40)           │             160 │ conv1d_17071[0][0]         │
│ (BatchNormalization)          │                           │                 │                            │
├───────────────────────────────┼───────────────────────────┼─────────────────┼────────────────────────────┤
│ activation_17071 (Activation) │ (None, 150, 40)           │               0 │ batch_normalization_17071… │
├───────────────────────────────┼───────────────────────────┼─────────────────┼────────────────────────────┤
│ add_12194 (Add)               │ (None, 150, 40)           │               0 │ activation_17071[0][0],    │
│                               │                           │                 │ patch_encoder_813[0][0]    │
├───────────────────────────────┼───────────────────────────┼─────────────────┼────────────────────────────┤
│ conv1d_17072 (Conv1D)         │ (None, 150, 40)           │          17,640 │ add_12194[0][0]            │
├───────────────────────────────┼───────────────────────────┼─────────────────┼────────────────────────────┤
│ batch_normalization_17072     │ (None, 150, 40)           │             160 │ conv1d_17072[0][0]         │
│ (BatchNormalization)          │                           │                 │                            │
├───────────────────────────────┼───────────────────────────┼─────────────────┼────────────────────────────┤
│ activation_17072 (Activation) │ (None, 150, 40)           │               0 │ batch_normalization_17072… │
├───────────────────────────────┼───────────────────────────┼─────────────────┼────────────────────────────┤
│ dropout_15446 (Dropout)       │ (None, 150, 40)           │               0 │ activation_17072[0][0]     │
├───────────────────────────────┼───────────────────────────┼─────────────────┼────────────────────────────┤
│ layer_normalization_7317      │ (None, 150, 40)           │              80 │ dropout_15446[0][0]        │
│ (LayerNormalization)          │                           │                 │                            │
├───────────────────────────────┼───────────────────────────┼─────────────────┼────────────────────────────┤
│ multi_head_attention_3252     │ (None, 150, 40)           │          26,120 │ layer_normalization_7317[… │
│ (MultiHeadAttention)          │                           │                 │ layer_normalization_7317[… │
├───────────────────────────────┼───────────────────────────┼─────────────────┼────────────────────────────┤
│ conv1d_17073 (Conv1D)         │ (None, 150, 40)           │          17,640 │ multi_head_attention_3252… │
├───────────────────────────────┼───────────────────────────┼─────────────────┼────────────────────────────┤
│ batch_normalization_17073     │ (None, 150, 40)           │             160 │ conv1d_17073[0][0]         │
│ (BatchNormalization)          │                           │                 │                            │
├───────────────────────────────┼───────────────────────────┼─────────────────┼────────────────────────────┤
│ activation_17073 (Activation) │ (None, 150, 40)           │               0 │ batch_normalization_17073… │
├───────────────────────────────┼───────────────────────────┼─────────────────┼────────────────────────────┤
│ conv1d_17074 (Conv1D)         │ (None, 150, 40)           │          17,640 │ activation_17073[0][0]     │
├───────────────────────────────┼───────────────────────────┼─────────────────┼────────────────────────────┤
│ batch_normalization_17074     │ (None, 150, 40)           │             160 │ conv1d_17074[0][0]         │
│ (BatchNormalization)          │                           │                 │                            │
├───────────────────────────────┼───────────────────────────┼─────────────────┼────────────────────────────┤
│ activation_17074 (Activation) │ (None, 150, 40)           │               0 │ batch_normalization_17074… │
├───────────────────────────────┼───────────────────────────┼─────────────────┼────────────────────────────┤
│ add_12195 (Add)               │ (None, 150, 40)           │               0 │ activation_17074[0][0],    │
│                               │                           │                 │ multi_head_attention_3252… │
├───────────────────────────────┼───────────────────────────┼─────────────────┼────────────────────────────┤
│ conv1d_17075 (Conv1D)         │ (None, 150, 40)           │          17,640 │ add_12195[0][0]            │
├───────────────────────────────┼───────────────────────────┼─────────────────┼────────────────────────────┤
│ batch_normalization_17075     │ (None, 150, 40)           │             160 │ conv1d_17075[0][0]         │
│ (BatchNormalization)          │                           │                 │                            │
├───────────────────────────────┼───────────────────────────┼─────────────────┼────────────────────────────┤
│ activation_17075 (Activation) │ (None, 150, 40)           │               0 │ batch_normalization_17075… │
├───────────────────────────────┼───────────────────────────┼─────────────────┼────────────────────────────┤
│ dropout_15448 (Dropout)       │ (None, 150, 40)           │               0 │ activation_17075[0][0]     │
├───────────────────────────────┼───────────────────────────┼─────────────────┼────────────────────────────┤
│ stochastic_depth_6504         │ (None, 150, 40)           │               0 │ dropout_15448[0][0]        │
│ (StochasticDepth)             │                           │                 │                            │
├───────────────────────────────┼───────────────────────────┼─────────────────┼────────────────────────────┤
│ add_12196 (Add)               │ (None, 150, 40)           │               0 │ stochastic_depth_6504[0][… │
│                               │                           │                 │ dropout_15446[0][0]        │
├───────────────────────────────┼───────────────────────────┼─────────────────┼────────────────────────────┤
│ layer_normalization_7318      │ (None, 150, 40)           │              80 │ add_12196[0][0]            │
│ (LayerNormalization)          │                           │                 │                            │
├───────────────────────────────┼───────────────────────────┼─────────────────┼────────────────────────────┤
│ dense_7318 (Dense)            │ (None, 150, 40)           │           1,640 │ layer_normalization_7318[… │
├───────────────────────────────┼───────────────────────────┼─────────────────┼────────────────────────────┤
│ dropout_15449 (Dropout)       │ (None, 150, 40)           │               0 │ dense_7318[0][0]           │
├───────────────────────────────┼───────────────────────────┼─────────────────┼────────────────────────────┤
│ dense_7319 (Dense)            │ (None, 150, 40)           │           1,640 │ dropout_15449[0][0]        │
├───────────────────────────────┼───────────────────────────┼─────────────────┼────────────────────────────┤
│ dropout_15450 (Dropout)       │ (None, 150, 40)           │               0 │ dense_7319[0][0]           │
├───────────────────────────────┼───────────────────────────┼─────────────────┼────────────────────────────┤
│ stochastic_depth_6505         │ (None, 150, 40)           │               0 │ dropout_15450[0][0]        │
│ (StochasticDepth)             │                           │                 │                            │
├───────────────────────────────┼───────────────────────────┼─────────────────┼────────────────────────────┤
│ add_12197 (Add)               │ (None, 150, 40)           │               0 │ stochastic_depth_6505[0][… │
│                               │                           │                 │ add_12196[0][0]            │
├───────────────────────────────┼───────────────────────────┼─────────────────┼────────────────────────────┤
│ conv1d_17076 (Conv1D)         │ (None, 150, 40)           │          17,640 │ add_12197[0][0]            │
├───────────────────────────────┼───────────────────────────┼─────────────────┼────────────────────────────┤
│ batch_normalization_17076     │ (None, 150, 40)           │             160 │ conv1d_17076[0][0]         │
│ (BatchNormalization)          │                           │                 │                            │
├───────────────────────────────┼───────────────────────────┼─────────────────┼────────────────────────────┤
│ activation_17076 (Activation) │ (None, 150, 40)           │               0 │ batch_normalization_17076… │
├───────────────────────────────┼───────────────────────────┼─────────────────┼────────────────────────────┤
│ conv1d_17077 (Conv1D)         │ (None, 150, 40)           │          17,640 │ activation_17076[0][0]     │
├───────────────────────────────┼───────────────────────────┼─────────────────┼────────────────────────────┤
│ batch_normalization_17077     │ (None, 150, 40)           │             160 │ conv1d_17077[0][0]         │
│ (BatchNormalization)          │                           │                 │                            │
├───────────────────────────────┼───────────────────────────┼─────────────────┼────────────────────────────┤
│ activation_17077 (Activation) │ (None, 150, 40)           │               0 │ batch_normalization_17077… │
├───────────────────────────────┼───────────────────────────┼─────────────────┼────────────────────────────┤
│ add_12198 (Add)               │ (None, 150, 40)           │               0 │ activation_17077[0][0],    │
│                               │                           │                 │ add_12197[0][0]            │
├───────────────────────────────┼───────────────────────────┼─────────────────┼────────────────────────────┤
│ conv1d_17078 (Conv1D)         │ (None, 150, 40)           │          17,640 │ add_12198[0][0]            │
├───────────────────────────────┼───────────────────────────┼─────────────────┼────────────────────────────┤
│ batch_normalization_17078     │ (None, 150, 40)           │             160 │ conv1d_17078[0][0]         │
│ (BatchNormalization)          │                           │                 │                            │
├───────────────────────────────┼───────────────────────────┼─────────────────┼────────────────────────────┤
│ activation_17078 (Activation) │ (None, 150, 40)           │               0 │ batch_normalization_17078… │
├───────────────────────────────┼───────────────────────────┼─────────────────┼────────────────────────────┤
│ dropout_15451 (Dropout)       │ (None, 150, 40)           │               0 │ activation_17078[0][0]     │
├───────────────────────────────┼───────────────────────────┼─────────────────┼────────────────────────────┤
│ layer_normalization_7319      │ (None, 150, 40)           │              80 │ dropout_15451[0][0]        │
│ (LayerNormalization)          │                           │                 │                            │
├───────────────────────────────┼───────────────────────────┼─────────────────┼────────────────────────────┤
│ multi_head_attention_3253     │ (None, 150, 40)           │          26,120 │ layer_normalization_7319[… │
│ (MultiHeadAttention)          │                           │                 │ layer_normalization_7319[… │
├───────────────────────────────┼───────────────────────────┼─────────────────┼────────────────────────────┤
│ conv1d_17079 (Conv1D)         │ (None, 150, 40)           │          17,640 │ multi_head_attention_3253… │
├───────────────────────────────┼───────────────────────────┼─────────────────┼────────────────────────────┤
│ batch_normalization_17079     │ (None, 150, 40)           │             160 │ conv1d_17079[0][0]         │
│ (BatchNormalization)          │                           │                 │                            │
├───────────────────────────────┼───────────────────────────┼─────────────────┼────────────────────────────┤
│ activation_17079 (Activation) │ (None, 150, 40)           │               0 │ batch_normalization_17079… │
├───────────────────────────────┼───────────────────────────┼─────────────────┼────────────────────────────┤
│ conv1d_17080 (Conv1D)         │ (None, 150, 40)           │          17,640 │ activation_17079[0][0]     │
├───────────────────────────────┼───────────────────────────┼─────────────────┼────────────────────────────┤
│ batch_normalization_17080     │ (None, 150, 40)           │             160 │ conv1d_17080[0][0]         │
│ (BatchNormalization)          │                           │                 │                            │
├───────────────────────────────┼───────────────────────────┼─────────────────┼────────────────────────────┤
│ activation_17080 (Activation) │ (None, 150, 40)           │               0 │ batch_normalization_17080… │
├───────────────────────────────┼───────────────────────────┼─────────────────┼────────────────────────────┤
│ conv1d_17052 (Conv1D)         │ (None, 6000, 3)           │             102 │ input[0][0]                │
├───────────────────────────────┼───────────────────────────┼─────────────────┼────────────────────────────┤
│ add_12199 (Add)               │ (None, 150, 40)           │               0 │ activation_17080[0][0],    │
│                               │                           │                 │ multi_head_attention_3253… │
├───────────────────────────────┼───────────────────────────┼─────────────────┼────────────────────────────┤
│ batch_normalization_17052     │ (None, 6000, 3)           │              12 │ conv1d_17052[0][0]         │
│ (BatchNormalization)          │                           │                 │                            │
├───────────────────────────────┼───────────────────────────┼─────────────────┼────────────────────────────┤
│ conv1d_17081 (Conv1D)         │ (None, 150, 40)           │          17,640 │ add_12199[0][0]            │
├───────────────────────────────┼───────────────────────────┼─────────────────┼────────────────────────────┤
│ activation_17052 (Activation) │ (None, 6000, 3)           │               0 │ batch_normalization_17052… │
├───────────────────────────────┼───────────────────────────┼─────────────────┼────────────────────────────┤
│ batch_normalization_17081     │ (None, 150, 40)           │             160 │ conv1d_17081[0][0]         │
│ (BatchNormalization)          │                           │                 │                            │
├───────────────────────────────┼───────────────────────────┼─────────────────┼────────────────────────────┤
│ conv1d_17053 (Conv1D)         │ (None, 6000, 3)           │             102 │ activation_17052[0][0]     │
├───────────────────────────────┼───────────────────────────┼─────────────────┼────────────────────────────┤
│ activation_17081 (Activation) │ (None, 150, 40)           │               0 │ batch_normalization_17081… │
├───────────────────────────────┼───────────────────────────┼─────────────────┼────────────────────────────┤
│ batch_normalization_17053     │ (None, 6000, 3)           │              12 │ conv1d_17053[0][0]         │
│ (BatchNormalization)          │                           │                 │                            │
├───────────────────────────────┼───────────────────────────┼─────────────────┼────────────────────────────┤
│ dropout_15453 (Dropout)       │ (None, 150, 40)           │               0 │ activation_17081[0][0]     │
├───────────────────────────────┼───────────────────────────┼─────────────────┼────────────────────────────┤
│ activation_17053 (Activation) │ (None, 6000, 3)           │               0 │ batch_normalization_17053… │
├───────────────────────────────┼───────────────────────────┼─────────────────┼────────────────────────────┤
│ stochastic_depth_6506         │ (None, 150, 40)           │               0 │ dropout_15453[0][0]        │
│ (StochasticDepth)             │                           │                 │                            │
├───────────────────────────────┼───────────────────────────┼─────────────────┼────────────────────────────┤
│ add_12180 (Add)               │ (None, 6000, 3)           │               0 │ activation_17053[0][0],    │
│                               │                           │                 │ input[0][0]                │
├───────────────────────────────┼───────────────────────────┼─────────────────┼────────────────────────────┤
│ add_12200 (Add)               │ (None, 150, 40)           │               0 │ stochastic_depth_6506[0][… │
│                               │                           │                 │ dropout_15451[0][0]        │
├───────────────────────────────┼───────────────────────────┼─────────────────┼────────────────────────────┤
│ conv1d_17054 (Conv1D)         │ (None, 6000, 10)          │             340 │ add_12180[0][0]            │
├───────────────────────────────┼───────────────────────────┼─────────────────┼────────────────────────────┤
│ layer_normalization_7320      │ (None, 150, 40)           │              80 │ add_12200[0][0]            │
│ (LayerNormalization)          │                           │                 │                            │
├───────────────────────────────┼───────────────────────────┼─────────────────┼────────────────────────────┤
│ batch_normalization_17054     │ (None, 6000, 10)          │              40 │ conv1d_17054[0][0]         │
│ (BatchNormalization)          │                           │                 │                            │
├───────────────────────────────┼───────────────────────────┼─────────────────┼────────────────────────────┤
│ dense_7320 (Dense)            │ (None, 150, 40)           │           1,640 │ layer_normalization_7320[… │
├───────────────────────────────┼───────────────────────────┼─────────────────┼────────────────────────────┤
│ activation_17054 (Activation) │ (None, 6000, 10)          │               0 │ batch_normalization_17054… │
├───────────────────────────────┼───────────────────────────┼─────────────────┼────────────────────────────┤
│ dropout_15454 (Dropout)       │ (None, 150, 40)           │               0 │ dense_7320[0][0]           │
├───────────────────────────────┼───────────────────────────┼─────────────────┼────────────────────────────┤
│ dropout_15428 (Dropout)       │ (None, 6000, 10)          │               0 │ activation_17054[0][0]     │
├───────────────────────────────┼───────────────────────────┼─────────────────┼────────────────────────────┤
│ dense_7321 (Dense)            │ (None, 150, 40)           │           1,640 │ dropout_15454[0][0]        │
├───────────────────────────────┼───────────────────────────┼─────────────────┼────────────────────────────┤
│ conv1d_17055 (Conv1D)         │ (None, 6000, 10)          │           1,110 │ dropout_15428[0][0]        │
├───────────────────────────────┼───────────────────────────┼─────────────────┼────────────────────────────┤
│ dropout_15455 (Dropout)       │ (None, 150, 40)           │               0 │ dense_7321[0][0]           │
├───────────────────────────────┼───────────────────────────┼─────────────────┼────────────────────────────┤
│ batch_normalization_17055     │ (None, 6000, 10)          │              40 │ conv1d_17055[0][0]         │
│ (BatchNormalization)          │                           │                 │                            │
├───────────────────────────────┼───────────────────────────┼─────────────────┼────────────────────────────┤
│ stochastic_depth_6507         │ (None, 150, 40)           │               0 │ dropout_15455[0][0]        │
│ (StochasticDepth)             │                           │                 │                            │
├───────────────────────────────┼───────────────────────────┼─────────────────┼────────────────────────────┤
│ activation_17055 (Activation) │ (None, 6000, 10)          │               0 │ batch_normalization_17055… │
├───────────────────────────────┼───────────────────────────┼─────────────────┼────────────────────────────┤
│ add_12201 (Add)               │ (None, 150, 40)           │               0 │ stochastic_depth_6507[0][… │
│                               │                           │                 │ add_12200[0][0]            │
├───────────────────────────────┼───────────────────────────┼─────────────────┼────────────────────────────┤
│ conv1d_17056 (Conv1D)         │ (None, 6000, 10)          │           1,110 │ activation_17055[0][0]     │
├───────────────────────────────┼───────────────────────────┼─────────────────┼────────────────────────────┤
│ conv1d_17082 (Conv1D)         │ (None, 150, 40)           │          17,640 │ add_12201[0][0]            │
├───────────────────────────────┼───────────────────────────┼─────────────────┼────────────────────────────┤
│ batch_normalization_17056     │ (None, 6000, 10)          │              40 │ conv1d_17056[0][0]         │
│ (BatchNormalization)          │                           │                 │                            │
├───────────────────────────────┼───────────────────────────┼─────────────────┼────────────────────────────┤
│ batch_normalization_17082     │ (None, 150, 40)           │             160 │ conv1d_17082[0][0]         │
│ (BatchNormalization)          │                           │                 │                            │
├───────────────────────────────┼───────────────────────────┼─────────────────┼────────────────────────────┤
│ activation_17056 (Activation) │ (None, 6000, 10)          │               0 │ batch_normalization_17056… │
├───────────────────────────────┼───────────────────────────┼─────────────────┼────────────────────────────┤
│ activation_17082 (Activation) │ (None, 150, 40)           │               0 │ batch_normalization_17082… │
├───────────────────────────────┼───────────────────────────┼─────────────────┼────────────────────────────┤
│ add_12181 (Add)               │ (None, 6000, 10)          │               0 │ activation_17056[0][0],    │
│                               │                           │                 │ dropout_15428[0][0]        │
├───────────────────────────────┼───────────────────────────┼─────────────────┼────────────────────────────┤
│ conv1d_17083 (Conv1D)         │ (None, 150, 40)           │          17,640 │ activation_17082[0][0]     │
├───────────────────────────────┼───────────────────────────┼─────────────────┼────────────────────────────┤
│ conv1d_17057 (Conv1D)         │ (None, 6000, 20)          │           2,220 │ add_12181[0][0]            │
├───────────────────────────────┼───────────────────────────┼─────────────────┼────────────────────────────┤
│ batch_normalization_17083     │ (None, 150, 40)           │             160 │ conv1d_17083[0][0]         │
│ (BatchNormalization)          │                           │                 │                            │
├───────────────────────────────┼───────────────────────────┼─────────────────┼────────────────────────────┤
│ batch_normalization_17057     │ (None, 6000, 20)          │              80 │ conv1d_17057[0][0]         │
│ (BatchNormalization)          │                           │                 │                            │
├───────────────────────────────┼───────────────────────────┼─────────────────┼────────────────────────────┤
│ activation_17083 (Activation) │ (None, 150, 40)           │               0 │ batch_normalization_17083… │
├───────────────────────────────┼───────────────────────────┼─────────────────┼────────────────────────────┤
│ activation_17057 (Activation) │ (None, 6000, 20)          │               0 │ batch_normalization_17057… │
├───────────────────────────────┼───────────────────────────┼─────────────────┼────────────────────────────┤
│ add_12202 (Add)               │ (None, 150, 40)           │               0 │ activation_17083[0][0],    │
│                               │                           │                 │ add_12201[0][0]            │
├───────────────────────────────┼───────────────────────────┼─────────────────┼────────────────────────────┤
│ dropout_15429 (Dropout)       │ (None, 6000, 20)          │               0 │ activation_17057[0][0]     │
├───────────────────────────────┼───────────────────────────┼─────────────────┼────────────────────────────┤
│ conv1d_17084 (Conv1D)         │ (None, 150, 40)           │          17,640 │ add_12202[0][0]            │
├───────────────────────────────┼───────────────────────────┼─────────────────┼────────────────────────────┤
│ conv1d_17058 (Conv1D)         │ (None, 6000, 20)          │           4,420 │ dropout_15429[0][0]        │
├───────────────────────────────┼───────────────────────────┼─────────────────┼────────────────────────────┤
│ batch_normalization_17084     │ (None, 150, 40)           │             160 │ conv1d_17084[0][0]         │
│ (BatchNormalization)          │                           │                 │                            │
├───────────────────────────────┼───────────────────────────┼─────────────────┼────────────────────────────┤
│ batch_normalization_17058     │ (None, 6000, 20)          │              80 │ conv1d_17058[0][0]         │
│ (BatchNormalization)          │                           │                 │                            │
├───────────────────────────────┼───────────────────────────┼─────────────────┼────────────────────────────┤
│ activation_17084 (Activation) │ (None, 150, 40)           │               0 │ batch_normalization_17084… │
├───────────────────────────────┼───────────────────────────┼─────────────────┼────────────────────────────┤
│ activation_17058 (Activation) │ (None, 6000, 20)          │               0 │ batch_normalization_17058… │
├───────────────────────────────┼───────────────────────────┼─────────────────┼────────────────────────────┤
│ dropout_15456 (Dropout)       │ (None, 150, 40)           │               0 │ activation_17084[0][0]     │
├───────────────────────────────┼───────────────────────────┼─────────────────┼────────────────────────────┤
│ conv1d_17059 (Conv1D)         │ (None, 6000, 20)          │           4,420 │ activation_17058[0][0]     │
├───────────────────────────────┼───────────────────────────┼─────────────────┼────────────────────────────┤
│ layer_normalization_7321      │ (None, 150, 40)           │              80 │ dropout_15456[0][0]        │
│ (LayerNormalization)          │                           │                 │                            │
├───────────────────────────────┼───────────────────────────┼─────────────────┼────────────────────────────┤
│ batch_normalization_17059     │ (None, 6000, 20)          │              80 │ conv1d_17059[0][0]         │
│ (BatchNormalization)          │                           │                 │                            │
├───────────────────────────────┼───────────────────────────┼─────────────────┼────────────────────────────┤
│ multi_head_attention_3254     │ (None, 150, 40)           │          26,120 │ layer_normalization_7321[… │
│ (MultiHeadAttention)          │                           │                 │ layer_normalization_7321[… │
├───────────────────────────────┼───────────────────────────┼─────────────────┼────────────────────────────┤
│ activation_17059 (Activation) │ (None, 6000, 20)          │               0 │ batch_normalization_17059… │
├───────────────────────────────┼───────────────────────────┼─────────────────┼────────────────────────────┤
│ conv1d_17085 (Conv1D)         │ (None, 150, 40)           │          17,640 │ multi_head_attention_3254… │
├───────────────────────────────┼───────────────────────────┼─────────────────┼────────────────────────────┤
│ add_12182 (Add)               │ (None, 6000, 20)          │               0 │ activation_17059[0][0],    │
│                               │                           │                 │ dropout_15429[0][0]        │
├───────────────────────────────┼───────────────────────────┼─────────────────┼────────────────────────────┤
│ batch_normalization_17085     │ (None, 150, 40)           │             160 │ conv1d_17085[0][0]         │
│ (BatchNormalization)          │                           │                 │                            │
├───────────────────────────────┼───────────────────────────┼─────────────────┼────────────────────────────┤
│ conv1d_17060 (Conv1D)         │ (None, 6000, 40)          │           8,840 │ add_12182[0][0]            │
├───────────────────────────────┼───────────────────────────┼─────────────────┼────────────────────────────┤
│ activation_17085 (Activation) │ (None, 150, 40)           │               0 │ batch_normalization_17085… │
├───────────────────────────────┼───────────────────────────┼─────────────────┼────────────────────────────┤
│ batch_normalization_17060     │ (None, 6000, 40)          │             160 │ conv1d_17060[0][0]         │
│ (BatchNormalization)          │                           │                 │                            │
├───────────────────────────────┼───────────────────────────┼─────────────────┼────────────────────────────┤
│ conv1d_17086 (Conv1D)         │ (None, 150, 40)           │          17,640 │ activation_17085[0][0]     │
├───────────────────────────────┼───────────────────────────┼─────────────────┼────────────────────────────┤
│ activation_17060 (Activation) │ (None, 6000, 40)          │               0 │ batch_normalization_17060… │
├───────────────────────────────┼───────────────────────────┼─────────────────┼────────────────────────────┤
│ batch_normalization_17086     │ (None, 150, 40)           │             160 │ conv1d_17086[0][0]         │
│ (BatchNormalization)          │                           │                 │                            │
├───────────────────────────────┼───────────────────────────┼─────────────────┼────────────────────────────┤
│ dropout_15430 (Dropout)       │ (None, 6000, 40)          │               0 │ activation_17060[0][0]     │
├───────────────────────────────┼───────────────────────────┼─────────────────┼────────────────────────────┤
│ activation_17086 (Activation) │ (None, 150, 40)           │               0 │ batch_normalization_17086… │
├───────────────────────────────┼───────────────────────────┼─────────────────┼────────────────────────────┤
│ reshape_1624 (Reshape)        │ (None, 6000, 1, 40)       │               0 │ dropout_15430[0][0]        │
├───────────────────────────────┼───────────────────────────┼─────────────────┼────────────────────────────┤
│ add_12203 (Add)               │ (None, 150, 40)           │               0 │ activation_17086[0][0],    │
│                               │                           │                 │ multi_head_attention_3254… │
├───────────────────────────────┼───────────────────────────┼─────────────────┼────────────────────────────┤
│ patches_812 (Patches)         │ (None, None, 1600)        │               0 │ reshape_1624[0][0]         │
├───────────────────────────────┼───────────────────────────┼─────────────────┼────────────────────────────┤
│ conv1d_17087 (Conv1D)         │ (None, 150, 40)           │          17,640 │ add_12203[0][0]            │
├───────────────────────────────┼───────────────────────────┼─────────────────┼────────────────────────────┤
│ patch_encoder_812             │ (None, 150, 40)           │          70,040 │ patches_812[0][0]          │
│ (PatchEncoder)                │                           │                 │                            │
├───────────────────────────────┼───────────────────────────┼─────────────────┼────────────────────────────┤
│ batch_normalization_17087     │ (None, 150, 40)           │             160 │ conv1d_17087[0][0]         │
│ (BatchNormalization)          │                           │                 │                            │
├───────────────────────────────┼───────────────────────────┼─────────────────┼────────────────────────────┤
│ layer_normalization_7308      │ (None, 150, 40)           │              80 │ patch_encoder_812[0][0]    │
│ (LayerNormalization)          │                           │                 │                            │
├───────────────────────────────┼───────────────────────────┼─────────────────┼────────────────────────────┤
│ activation_17087 (Activation) │ (None, 150, 40)           │               0 │ batch_normalization_17087… │
├───────────────────────────────┼───────────────────────────┼─────────────────┼────────────────────────────┤
│ multi_head_attention_3248     │ (None, 150, 40)           │          26,120 │ layer_normalization_7308[… │
│ (MultiHeadAttention)          │                           │                 │ layer_normalization_7308[… │
├───────────────────────────────┼───────────────────────────┼─────────────────┼────────────────────────────┤
│ dropout_15458 (Dropout)       │ (None, 150, 40)           │               0 │ activation_17087[0][0]     │
├───────────────────────────────┼───────────────────────────┼─────────────────┼────────────────────────────┤
│ stochastic_depth_6496         │ (None, 150, 40)           │               0 │ multi_head_attention_3248… │
│ (StochasticDepth)             │                           │                 │                            │
├───────────────────────────────┼───────────────────────────┼─────────────────┼────────────────────────────┤
│ stochastic_depth_6508         │ (None, 150, 40)           │               0 │ dropout_15458[0][0]        │
│ (StochasticDepth)             │                           │                 │                            │
├───────────────────────────────┼───────────────────────────┼─────────────────┼────────────────────────────┤
│ add_12183 (Add)               │ (None, 150, 40)           │               0 │ stochastic_depth_6496[0][… │
│                               │                           │                 │ patch_encoder_812[0][0]    │
├───────────────────────────────┼───────────────────────────┼─────────────────┼────────────────────────────┤
│ add_12204 (Add)               │ (None, 150, 40)           │               0 │ stochastic_depth_6508[0][… │
│                               │                           │                 │ dropout_15456[0][0]        │
├───────────────────────────────┼───────────────────────────┼─────────────────┼────────────────────────────┤
│ layer_normalization_7309      │ (None, 150, 40)           │              80 │ add_12183[0][0]            │
│ (LayerNormalization)          │                           │                 │                            │
├───────────────────────────────┼───────────────────────────┼─────────────────┼────────────────────────────┤
│ layer_normalization_7322      │ (None, 150, 40)           │              80 │ add_12204[0][0]            │
│ (LayerNormalization)          │                           │                 │                            │
├───────────────────────────────┼───────────────────────────┼─────────────────┼────────────────────────────┤
│ dense_7309 (Dense)            │ (None, 150, 40)           │           1,640 │ layer_normalization_7309[… │
├───────────────────────────────┼───────────────────────────┼─────────────────┼────────────────────────────┤
│ dense_7322 (Dense)            │ (None, 150, 40)           │           1,640 │ layer_normalization_7322[… │
├───────────────────────────────┼───────────────────────────┼─────────────────┼────────────────────────────┤
│ dropout_15432 (Dropout)       │ (None, 150, 40)           │               0 │ dense_7309[0][0]           │
├───────────────────────────────┼───────────────────────────┼─────────────────┼────────────────────────────┤
│ dropout_15459 (Dropout)       │ (None, 150, 40)           │               0 │ dense_7322[0][0]           │
├───────────────────────────────┼───────────────────────────┼─────────────────┼────────────────────────────┤
│ dense_7310 (Dense)            │ (None, 150, 40)           │           1,640 │ dropout_15432[0][0]        │
├───────────────────────────────┼───────────────────────────┼─────────────────┼────────────────────────────┤
│ dense_7323 (Dense)            │ (None, 150, 40)           │           1,640 │ dropout_15459[0][0]        │
├───────────────────────────────┼───────────────────────────┼─────────────────┼────────────────────────────┤
│ dropout_15433 (Dropout)       │ (None, 150, 40)           │               0 │ dense_7310[0][0]           │
├───────────────────────────────┼───────────────────────────┼─────────────────┼────────────────────────────┤
│ dropout_15460 (Dropout)       │ (None, 150, 40)           │               0 │ dense_7323[0][0]           │
├───────────────────────────────┼───────────────────────────┼─────────────────┼────────────────────────────┤
│ stochastic_depth_6497         │ (None, 150, 40)           │               0 │ dropout_15433[0][0]        │
│ (StochasticDepth)             │                           │                 │                            │
├───────────────────────────────┼───────────────────────────┼─────────────────┼────────────────────────────┤
│ stochastic_depth_6509         │ (None, 150, 40)           │               0 │ dropout_15460[0][0]        │
│ (StochasticDepth)             │                           │                 │                            │
├───────────────────────────────┼───────────────────────────┼─────────────────┼────────────────────────────┤
│ add_12184 (Add)               │ (None, 150, 40)           │               0 │ stochastic_depth_6497[0][… │
│                               │                           │                 │ add_12183[0][0]            │
├───────────────────────────────┼───────────────────────────┼─────────────────┼────────────────────────────┤
│ add_12205 (Add)               │ (None, 150, 40)           │               0 │ stochastic_depth_6509[0][… │
│                               │                           │                 │ add_12204[0][0]            │
├───────────────────────────────┼───────────────────────────┼─────────────────┼────────────────────────────┤
│ layer_normalization_7310      │ (None, 150, 40)           │              80 │ add_12184[0][0]            │
│ (LayerNormalization)          │                           │                 │                            │
├───────────────────────────────┼───────────────────────────┼─────────────────┼────────────────────────────┤
│ conv1d_17088 (Conv1D)         │ (None, 150, 40)           │          17,640 │ add_12205[0][0]            │
├───────────────────────────────┼───────────────────────────┼─────────────────┼────────────────────────────┤
│ multi_head_attention_3249     │ (None, 150, 40)           │          26,120 │ layer_normalization_7310[… │
│ (MultiHeadAttention)          │                           │                 │ layer_normalization_7310[… │
├───────────────────────────────┼───────────────────────────┼─────────────────┼────────────────────────────┤
│ batch_normalization_17088     │ (None, 150, 40)           │             160 │ conv1d_17088[0][0]         │
│ (BatchNormalization)          │                           │                 │                            │
├───────────────────────────────┼───────────────────────────┼─────────────────┼────────────────────────────┤
│ stochastic_depth_6498         │ (None, 150, 40)           │               0 │ multi_head_attention_3249… │
│ (StochasticDepth)             │                           │                 │                            │
├───────────────────────────────┼───────────────────────────┼─────────────────┼────────────────────────────┤
│ activation_17088 (Activation) │ (None, 150, 40)           │               0 │ batch_normalization_17088… │
├───────────────────────────────┼───────────────────────────┼─────────────────┼────────────────────────────┤
│ add_12185 (Add)               │ (None, 150, 40)           │               0 │ stochastic_depth_6498[0][… │
│                               │                           │                 │ add_12184[0][0]            │
├───────────────────────────────┼───────────────────────────┼─────────────────┼────────────────────────────┤
│ conv1d_17089 (Conv1D)         │ (None, 150, 40)           │          17,640 │ activation_17088[0][0]     │
├───────────────────────────────┼───────────────────────────┼─────────────────┼────────────────────────────┤
│ layer_normalization_7311      │ (None, 150, 40)           │              80 │ add_12185[0][0]            │
│ (LayerNormalization)          │                           │                 │                            │
├───────────────────────────────┼───────────────────────────┼─────────────────┼────────────────────────────┤
│ batch_normalization_17089     │ (None, 150, 40)           │             160 │ conv1d_17089[0][0]         │
│ (BatchNormalization)          │                           │                 │                            │
├───────────────────────────────┼───────────────────────────┼─────────────────┼────────────────────────────┤
│ dense_7311 (Dense)            │ (None, 150, 40)           │           1,640 │ layer_normalization_7311[… │
├───────────────────────────────┼───────────────────────────┼─────────────────┼────────────────────────────┤
│ activation_17089 (Activation) │ (None, 150, 40)           │               0 │ batch_normalization_17089… │
├───────────────────────────────┼───────────────────────────┼─────────────────┼────────────────────────────┤
│ dropout_15435 (Dropout)       │ (None, 150, 40)           │               0 │ dense_7311[0][0]           │
├───────────────────────────────┼───────────────────────────┼─────────────────┼────────────────────────────┤
│ add_12206 (Add)               │ (None, 150, 40)           │               0 │ activation_17089[0][0],    │
│                               │                           │                 │ add_12205[0][0]            │
├───────────────────────────────┼───────────────────────────┼─────────────────┼────────────────────────────┤
│ dense_7312 (Dense)            │ (None, 150, 40)           │           1,640 │ dropout_15435[0][0]        │
├───────────────────────────────┼───────────────────────────┼─────────────────┼────────────────────────────┤
│ conv1d_17090 (Conv1D)         │ (None, 150, 40)           │          17,640 │ add_12206[0][0]            │
├───────────────────────────────┼───────────────────────────┼─────────────────┼────────────────────────────┤
│ dropout_15436 (Dropout)       │ (None, 150, 40)           │               0 │ dense_7312[0][0]           │
├───────────────────────────────┼───────────────────────────┼─────────────────┼────────────────────────────┤
│ batch_normalization_17090     │ (None, 150, 40)           │             160 │ conv1d_17090[0][0]         │
│ (BatchNormalization)          │                           │                 │                            │
├───────────────────────────────┼───────────────────────────┼─────────────────┼────────────────────────────┤
│ stochastic_depth_6499         │ (None, 150, 40)           │               0 │ dropout_15436[0][0]        │
│ (StochasticDepth)             │                           │                 │                            │
├───────────────────────────────┼───────────────────────────┼─────────────────┼────────────────────────────┤
│ activation_17090 (Activation) │ (None, 150, 40)           │               0 │ batch_normalization_17090… │
├───────────────────────────────┼───────────────────────────┼─────────────────┼────────────────────────────┤
│ add_12186 (Add)               │ (None, 150, 40)           │               0 │ stochastic_depth_6499[0][… │
│                               │                           │                 │ add_12185[0][0]            │
├───────────────────────────────┼───────────────────────────┼─────────────────┼────────────────────────────┤
│ dropout_15461 (Dropout)       │ (None, 150, 40)           │               0 │ activation_17090[0][0]     │
├───────────────────────────────┼───────────────────────────┼─────────────────┼────────────────────────────┤
│ layer_normalization_7312      │ (None, 150, 40)           │              80 │ add_12186[0][0]            │
│ (LayerNormalization)          │                           │                 │                            │
├───────────────────────────────┼───────────────────────────┼─────────────────┼────────────────────────────┤
│ layer_normalization_7323      │ (None, 150, 40)           │              80 │ dropout_15461[0][0]        │
│ (LayerNormalization)          │                           │                 │                            │
├───────────────────────────────┼───────────────────────────┼─────────────────┼────────────────────────────┤
│ multi_head_attention_3250     │ (None, 150, 40)           │          26,120 │ layer_normalization_7312[… │
│ (MultiHeadAttention)          │                           │                 │ layer_normalization_7312[… │
├───────────────────────────────┼───────────────────────────┼─────────────────┼────────────────────────────┤
│ multi_head_attention_3255     │ (None, 150, 40)           │          26,120 │ layer_normalization_7323[… │
│ (MultiHeadAttention)          │                           │                 │ layer_normalization_7323[… │
├───────────────────────────────┼───────────────────────────┼─────────────────┼────────────────────────────┤
│ stochastic_depth_6500         │ (None, 150, 40)           │               0 │ multi_head_attention_3250… │
│ (StochasticDepth)             │                           │                 │                            │
├───────────────────────────────┼───────────────────────────┼─────────────────┼────────────────────────────┤
│ conv1d_17091 (Conv1D)         │ (None, 150, 40)           │          17,640 │ multi_head_attention_3255… │
├───────────────────────────────┼───────────────────────────┼─────────────────┼────────────────────────────┤
│ add_12187 (Add)               │ (None, 150, 40)           │               0 │ stochastic_depth_6500[0][… │
│                               │                           │                 │ add_12186[0][0]            │
├───────────────────────────────┼───────────────────────────┼─────────────────┼────────────────────────────┤
│ batch_normalization_17091     │ (None, 150, 40)           │             160 │ conv1d_17091[0][0]         │
│ (BatchNormalization)          │                           │                 │                            │
├───────────────────────────────┼───────────────────────────┼─────────────────┼────────────────────────────┤
│ layer_normalization_7313      │ (None, 150, 40)           │              80 │ add_12187[0][0]            │
│ (LayerNormalization)          │                           │                 │                            │
├───────────────────────────────┼───────────────────────────┼─────────────────┼────────────────────────────┤
│ activation_17091 (Activation) │ (None, 150, 40)           │               0 │ batch_normalization_17091… │
├───────────────────────────────┼───────────────────────────┼─────────────────┼────────────────────────────┤
│ dense_7313 (Dense)            │ (None, 150, 40)           │           1,640 │ layer_normalization_7313[… │
├───────────────────────────────┼───────────────────────────┼─────────────────┼────────────────────────────┤
│ conv1d_17092 (Conv1D)         │ (None, 150, 40)           │          17,640 │ activation_17091[0][0]     │
├───────────────────────────────┼───────────────────────────┼─────────────────┼────────────────────────────┤
│ dropout_15438 (Dropout)       │ (None, 150, 40)           │               0 │ dense_7313[0][0]           │
├───────────────────────────────┼───────────────────────────┼─────────────────┼────────────────────────────┤
│ batch_normalization_17092     │ (None, 150, 40)           │             160 │ conv1d_17092[0][0]         │
│ (BatchNormalization)          │                           │                 │                            │
├───────────────────────────────┼───────────────────────────┼─────────────────┼────────────────────────────┤
│ dense_7314 (Dense)            │ (None, 150, 40)           │           1,640 │ dropout_15438[0][0]        │
├───────────────────────────────┼───────────────────────────┼─────────────────┼────────────────────────────┤
│ activation_17092 (Activation) │ (None, 150, 40)           │               0 │ batch_normalization_17092… │
├───────────────────────────────┼───────────────────────────┼─────────────────┼────────────────────────────┤
│ dropout_15439 (Dropout)       │ (None, 150, 40)           │               0 │ dense_7314[0][0]           │
├───────────────────────────────┼───────────────────────────┼─────────────────┼────────────────────────────┤
│ add_12207 (Add)               │ (None, 150, 40)           │               0 │ activation_17092[0][0],    │
│                               │                           │                 │ multi_head_attention_3255… │
├───────────────────────────────┼───────────────────────────┼─────────────────┼────────────────────────────┤
│ stochastic_depth_6501         │ (None, 150, 40)           │               0 │ dropout_15439[0][0]        │
│ (StochasticDepth)             │                           │                 │                            │
├───────────────────────────────┼───────────────────────────┼─────────────────┼────────────────────────────┤
│ conv1d_17093 (Conv1D)         │ (None, 150, 40)           │          17,640 │ add_12207[0][0]            │
├───────────────────────────────┼───────────────────────────┼─────────────────┼────────────────────────────┤
│ add_12188 (Add)               │ (None, 150, 40)           │               0 │ stochastic_depth_6501[0][… │
│                               │                           │                 │ add_12187[0][0]            │
├───────────────────────────────┼───────────────────────────┼─────────────────┼────────────────────────────┤
│ batch_normalization_17093     │ (None, 150, 40)           │             160 │ conv1d_17093[0][0]         │
│ (BatchNormalization)          │                           │                 │                            │
├───────────────────────────────┼───────────────────────────┼─────────────────┼────────────────────────────┤
│ layer_normalization_7314      │ (None, 150, 40)           │              80 │ add_12188[0][0]            │
│ (LayerNormalization)          │                           │                 │                            │
├───────────────────────────────┼───────────────────────────┼─────────────────┼────────────────────────────┤
│ activation_17093 (Activation) │ (None, 150, 40)           │               0 │ batch_normalization_17093… │
├───────────────────────────────┼───────────────────────────┼─────────────────┼────────────────────────────┤
│ multi_head_attention_3251     │ (None, 150, 40)           │          26,120 │ layer_normalization_7314[… │
│ (MultiHeadAttention)          │                           │                 │ layer_normalization_7314[… │
├───────────────────────────────┼───────────────────────────┼─────────────────┼────────────────────────────┤
│ dropout_15463 (Dropout)       │ (None, 150, 40)           │               0 │ activation_17093[0][0]     │
├───────────────────────────────┼───────────────────────────┼─────────────────┼────────────────────────────┤
│ stochastic_depth_6502         │ (None, 150, 40)           │               0 │ multi_head_attention_3251… │
│ (StochasticDepth)             │                           │                 │                            │
├───────────────────────────────┼───────────────────────────┼─────────────────┼────────────────────────────┤
│ stochastic_depth_6510         │ (None, 150, 40)           │               0 │ dropout_15463[0][0]        │
│ (StochasticDepth)             │                           │                 │                            │
├───────────────────────────────┼───────────────────────────┼─────────────────┼────────────────────────────┤
│ add_12189 (Add)               │ (None, 150, 40)           │               0 │ stochastic_depth_6502[0][… │
│                               │                           │                 │ add_12188[0][0]            │
├───────────────────────────────┼───────────────────────────┼─────────────────┼────────────────────────────┤
│ add_12208 (Add)               │ (None, 150, 40)           │               0 │ stochastic_depth_6510[0][… │
│                               │                           │                 │ dropout_15461[0][0]        │
├───────────────────────────────┼───────────────────────────┼─────────────────┼────────────────────────────┤
│ layer_normalization_7315      │ (None, 150, 40)           │              80 │ add_12189[0][0]            │
│ (LayerNormalization)          │                           │                 │                            │
├───────────────────────────────┼───────────────────────────┼─────────────────┼────────────────────────────┤
│ layer_normalization_7324      │ (None, 150, 40)           │              80 │ add_12208[0][0]            │
│ (LayerNormalization)          │                           │                 │                            │
├───────────────────────────────┼───────────────────────────┼─────────────────┼────────────────────────────┤
│ dense_7315 (Dense)            │ (None, 150, 40)           │           1,640 │ layer_normalization_7315[… │
├───────────────────────────────┼───────────────────────────┼─────────────────┼────────────────────────────┤
│ dense_7324 (Dense)            │ (None, 150, 40)           │           1,640 │ layer_normalization_7324[… │
├───────────────────────────────┼───────────────────────────┼─────────────────┼────────────────────────────┤
│ dropout_15441 (Dropout)       │ (None, 150, 40)           │               0 │ dense_7315[0][0]           │
├───────────────────────────────┼───────────────────────────┼─────────────────┼────────────────────────────┤
│ dropout_15464 (Dropout)       │ (None, 150, 40)           │               0 │ dense_7324[0][0]           │
├───────────────────────────────┼───────────────────────────┼─────────────────┼────────────────────────────┤
│ dense_7316 (Dense)            │ (None, 150, 40)           │           1,640 │ dropout_15441[0][0]        │
├───────────────────────────────┼───────────────────────────┼─────────────────┼────────────────────────────┤
│ dense_7325 (Dense)            │ (None, 150, 40)           │           1,640 │ dropout_15464[0][0]        │
├───────────────────────────────┼───────────────────────────┼─────────────────┼────────────────────────────┤
│ dropout_15442 (Dropout)       │ (None, 150, 40)           │               0 │ dense_7316[0][0]           │
├───────────────────────────────┼───────────────────────────┼─────────────────┼────────────────────────────┤
│ dropout_15465 (Dropout)       │ (None, 150, 40)           │               0 │ dense_7325[0][0]           │
├───────────────────────────────┼───────────────────────────┼─────────────────┼────────────────────────────┤
│ stochastic_depth_6503         │ (None, 150, 40)           │               0 │ dropout_15442[0][0]        │
│ (StochasticDepth)             │                           │                 │                            │
├───────────────────────────────┼───────────────────────────┼─────────────────┼────────────────────────────┤
│ stochastic_depth_6511         │ (None, 150, 40)           │               0 │ dropout_15465[0][0]        │
│ (StochasticDepth)             │                           │                 │                            │
├───────────────────────────────┼───────────────────────────┼─────────────────┼────────────────────────────┤
│ add_12190 (Add)               │ (None, 150, 40)           │               0 │ stochastic_depth_6503[0][… │
│                               │                           │                 │ add_12189[0][0]            │
├───────────────────────────────┼───────────────────────────┼─────────────────┼────────────────────────────┤
│ add_12209 (Add)               │ (None, 150, 40)           │               0 │ stochastic_depth_6511[0][… │
│                               │                           │                 │ add_12208[0][0]            │
├───────────────────────────────┼───────────────────────────┼─────────────────┼────────────────────────────┤
│ layer_normalization_7316      │ (None, 150, 40)           │              80 │ add_12190[0][0]            │
│ (LayerNormalization)          │                           │                 │                            │
├───────────────────────────────┼───────────────────────────┼─────────────────┼────────────────────────────┤
│ layer_normalization_7325      │ (None, 150, 40)           │              80 │ add_12209[0][0]            │
│ (LayerNormalization)          │                           │                 │                            │
├───────────────────────────────┼───────────────────────────┼─────────────────┼────────────────────────────┤
│ reshape_1625 (Reshape)        │ (None, 6000, 1)           │               0 │ layer_normalization_7316[… │
├───────────────────────────────┼───────────────────────────┼─────────────────┼────────────────────────────┤
│ reshape_1627 (Reshape)        │ (None, 6000, 1)           │               0 │ layer_normalization_7325[… │
├───────────────────────────────┼───────────────────────────┼─────────────────┼────────────────────────────┤
│ picker_P (Conv1D)             │ (None, 6000, 1)           │              16 │ reshape_1625[0][0]         │
├───────────────────────────────┼───────────────────────────┼─────────────────┼────────────────────────────┤
│ picker_S (Conv1D)             │ (None, 6000, 1)           │              16 │ reshape_1627[0][0]         │
└───────────────────────────────┴───────────────────────────┴─────────────────┴────────────────────────────┘
 Total params: 850,368 (3.24 MB)
 Trainable params: 847,904 (3.23 MB)
 Non-trainable params: 2,464 (9.62 KB)
*** Loading is complete!